best_regression_Large_model.npz (npz, 355294 bytes, 8 tensors)

param_0 f8 [256, 10]
0	0xbf9e2813cff581ae	-0.02944975811749522
1	0xbfd16cef6fe7a53e	-0.2722738831349324
2	0x3fb96a0537418588	0.09927399252912583
3	0x3faf6f704acb96a8	0.06139708436039132
4	0xbfc271474d888c3d	-0.14408198629198124
5	0x3fd1a10068576ee2	0.27545175733187766
6	0x3fcacc1642a0b163	0.2093532395678138
7	0xbfd01c8330709ffb	-0.25174026232207297
8	0x3fc96e281ce95b4d	0.19867421542832134
9	0xbfb2c262df1b4c77	-0.07327859827937454
10	0x3fc313f14ccf99c2	0.1490460991910379
11	0x3fcb20933739709a	0.21193161198141724
12	0xbfcec5889f2ead88	-0.24040324947905511
13	0x3fbca01d11510d64	0.11181813881653607
14	0x3fcc81f250d5b7b8	0.22271565386784942
15	0xbfb52d8d73437d7d	-0.08272632659963182
16	0xbfd26d4f60458f9a	-0.2879217567590274
17	0xbfd0e0c93cca5e8c	-0.2637198537499692
18	0xbfd1a38bcdc9653a	-0.27560706230504517
19	0xbfd229076d527f1a	-0.28375421215058483
20	0xbfbcb251380a65f7	-0.11209590547732505
21	0xbfbdfd52e45d05aa	-0.11714666438367397
22	0xbfd0c3ae6f29826b	-0.26194344382932994
23	0x3fb8a3c559b14306	0.09624894561535421
24	0x3fd4a6f47366e16e	0.32269011754717425
25	0x3fcf84e41b00ce0c	0.2462430126048364
26	0xbfc493aab6899484	-0.16075643456420974
27	0x3fc40801805fa080	0.15649431961287874
28	0x3fd18446f29f5dc9	0.27369855588537156
29	0x3fcfa7dead6a5b7c	0.2473104807620209
30	0x3fcbc531573b6413	0.21695534476637643
31	0x3fc2af3ed93cef10	0.1459730683071645
32	0xbfb96f654aaa0d6f	-0.09935601303918927
33	0xbfcf24c0aac8786a	-0.24330910052316607
34	0xbf531ae5ac93c911	-0.0011660807525087395
35	0xbfd33335cff26629	-0.300000622819058
36	0x3fd5894fdbab2713	0.3365058560562925
37	0xbfb5f6fa9b904c6a	-0.08579984949055733
38	0x3fd50b636215cf4f	0.32882008150703695
39	0x3fc3cc85eb1efa3d	0.1546790502597605
40	0xbf970f91ce7b32db	-0.022520330646147762
41	0xbfca0e3f8b4b2252	-0.2035598211425787
42	0xbfc6cc592471aab9	-0.17811121253483522
43	0x3fbfa249f06e8070	0.1235700809470488
44	0x3fc63b928bc9fe57	0.1736930067599924
45	0x3fd4a8edfba61144	0.32281064581936314
46	0xbfd155ed73f6ea52	-0.27086960148486583
47	0xbfc74de82e7da9cc	-0.18206503171980015
48	0xbfd450c8d4f2592b	-0.31743069453786416
49	0xbfc317ccf071d796	-0.14916383495772995
50	0x3fc9f45f9bb87aab	0.20277018645807252
51	0xbfc9d18c19e40e17	-0.201707375185024
52	0x3fadb21c5d4ca1a0	0.05799950255306219
53	0xbfa87cd64f93943b	-0.04782743188278756
54	0xbfbd0e6b7b530f96	-0.11350127945757857
55	0x3fb6384f7385e45d	0.08679672785173538
56	0xbf873dffd0eabfaf	-0.011348722994938358
57	0xbfb4c367efdf4177	-0.0811066589951731
58	0x3fbd826b826d7ed9	0.11527130064268522
59	0xbfbf3f4d57a58eb1	-0.12205966367542477
60	0x3fb11345f139895c	0.06670033587719132
61	0x3fd09324a4273b2c	0.25898090391722195
62	0x3fc03f6fc4e4685a	0.1269359313380985
63	0xbfb6535503fb706a	-0.08720904681416788
64	0x3fc4ac70b4f27118	0.16151245913796042
65	0x3fcbb52bdbabbb5e	0.21646640993227612
66	0xbfc140787101b957	-0.13477998273760747
67	0x3fbd29b7f8806dba	0.11391782586036117
68	0xbfb20b33903163d6	-0.07048342008910366
69	0x3fca46e318c84786	0.205288302517655
70	0xbfbccb0a15474174	-0.11247313518038543
71	0x3fd24d09bac405cc	0.285952026737587
72	0x3f8b81d863986ece	0.01343125394765057
73	0xbfbc53e762ed48f2	-0.11065527119834309
74	0xbfa29d708054da37	-0.03635741774126127
75	0xbfb125d62d11a9fe	-0.06698359108273874
76	0xbfd1112376dc05f4	-0.2666710530030223
77	0xbfcd7214139ab8e8	-0.23004389722104368
78	0xbfc187922489e916	-0.13694979461781348
79	0xbf6640283793065b	-0.002716139363287335
80	0xbfb4b3c433b052c8	-0.08086801778729147
81	0xbfd3fd9187ec95b7	-0.3123515918144579
82	0x3fb49e02c5a6aeed	0.08053605390039893
83	0xbfd0602c8cdf65b1	-0.2558699966153553
84	0xbfc4a3e719390dc9	-0.16125191432557376
85	0xbfca6cb15a0f6b63	-0.20644204041931422
86	0x3f8d762e10ef2995	0.014385566608230241
87	0xbfd0a8f124cadcf3	-0.26031139939318776
88	0xbfc0ff92e59494ad	-0.13279949388485104
89	0xbf9349b76a63787c	-0.01883589350551816
90	0xbfcd47bbe8f39b0e	-0.2287516486605558
91	0xbfac37ca5dc909ef	-0.05511314768638786
92	0xbfb5e694fd5e873a	-0.08554965196392753
93	0x3fcbd9a95c1524c8	0.21758000370235764
94	0x3fc7be6a241b2338	0.18549849284161168
95	0x3fd1f23fd40d8952	0.2804107256726144
96	0x3fa4d874e016c94e	0.04071393237554109
97	0x3fa07bb4bbf04b60	0.032193801824311974
98	0x3fd3b2dc8e4b64c5	0.30779184242198837
99	0xbfaf8d27e6028ff9	-0.06162380869616863
100	0x3f90081d810c8566	0.015655957223434845
101	0xbfa991bede8f4555	-0.04994007555763839
102	0x3f9e8d6a75c1e1b6	0.02983633369191959
103	0xbfd1704edb3bd710	-0.27247973832651073
104	0x3fc5eb826f632220	0.17124967993574192
105	0x3fd4b90a025b98b7	0.32379389028791244
106	0xbfd38f453c7667d8	-0.3056195345358197
107	0x3fc4bcd6c4cc4a8b	0.16201290711667968
108	0xbfc7a82cb71a8a8f	-0.18481978359803405
109	0xbfc39c005d21c9bd	-0.1531982855554598
110	0x3fbe1f08987f2b64	0.11766103480401352
111	0xbfd2ca0e787ba72d	-0.2935825516311635
112	0xbf6e42d617d61b41	-0.0036939794069356384
113	0xbfd574565eb5527e	-0.3352256703267712
114	0x3faaee3b2b4f4b04	0.05259880927737551
115	0xbf8e8c4c7bcb1f6f	-0.01491603615558265
116	0x3fcf0f822b0dee17	0.24266078092829055
117	0x3fc01eefab53d273	0.12594409814450422
118	0xbfcea9a430efafd9	-0.23955204381434106
119	0xbfb39ecb51c6cab3	-0.07664175745484662
120	0x3fcb6c51172eb36b	0.21424306518511158
121	0x3fbad88488c8d366	0.10486629809822787
122	0x3fb8c64833c078f7	0.09677554381821439
123	0x3f984ece7184aa44	0.023738122633554917
124	0xbfa860691921695e	-0.047610554044427586
125	0xbf4aa0824d8630f3	-0.000812591194561145
126	0x3fcce66130e056b4	0.2257806290296479
127	0xbfce2d21b331434c	-0.23575230836515926
128	0x3fd544bf2b2f1280	0.332320968791727
129	0xbfc5f487833ec10d	-0.17152494343236704
130	0xbfa020c95c4b9435	-0.031500141636378855
131	0xbfd226f8618779a5	-0.28362855457626274
132	0x3fa89be66257c4e0	0.0480644221351072
133	0xbfb82e8c18f5dee7	-0.09446025475869711
134	0xbfc40e8682b877e4	-0.15669328101006308
135	0x3fd50aad83bc9272	0.328776720665963
136	0xbfb262772125782c	-0.07181496199834275
137	0xbfa47a3626becd62	-0.039994899968770495
138	0xbfa3731427db9366	-0.03798735605759056
139	0xbfcc26ed61fe5ea5	-0.2199379662022142
140	0xbfaf34d50f162e0a	-0.06094995316660963
141	0xbfb8ec7b38ae063c	-0.09735841878684764
142	0xbfa35978fa3ad3b6	-0.03779199652254965
143	0x3fcfafa9acdac05d	0.247548303033457
144	0xbfc884085efea3b4	-0.1915293182221639
145	0x3fa4a7161a4684f4	0.040337267596678134
146	0xbfd33721b00cb04e	-0.30023996536579467
147	0xbfb493437e36f80f	-0.08037206489004255
148	0xbfa66ad6f9be9482	-0.0437838725913844
149	0xbfd066e09870929c	-0.25627913366978716
150	0x3f99d15241d9c7d1	0.02521255995674904
151	0xbfc19faf0c6c623a	-0.13768566233263063
152	0x3fd51df600035078	0.32995367051376645
153	0x3fb1905613d79afa	0.06860864624432486
154	0xbfc444cea9004dde	-0.1583498311234583
155	0xbfccf6d5c00f3ff2	-0.22628280523213068
156	0xbfd2160ccc1ad621	-0.28259582454788484
157	0xbfd052a43e8f87dc	-0.25504404172363393
158	0x3fbbf83ad09d5d72	0.1092564353287935
159	0x3fced0647da468d8	0.2407346356856752
160	0xbfc6e9681e27c6f4	-0.17899800751143113
161	0xbfad5de172469840	-0.057356877517392935
162	0xbfbc4289090e682d	-0.11039024802303805
163	0x3fbca707e32c5bf3	0.11192368789885147
164	0xbfca10f00cf1cbe2	-0.20364189750725276
165	0x3fd2e4059dbc55e5	0.2951673546207004
166	0x3fc0b73f8612f0ec	0.13059228941518286
167	0x3fd2241db6f564cc	0.28345435015723974
168	0xbfc61f9a880fc5bd	-0.17283946651109075
169	0x3f9fe4254f32197c	0.031143744429323203
170	0x3fbbf36336fa4811	0.10918254940250473
171	0x3fbe8a0d51436b0d	0.11929400667160568
172	0xbfd4fd4a160f63dd	-0.327959558051189
173	0x3fd4f1623a686f27	0.32723289207364065
174	0x3fd02f892b4cd952	0.2529013560155323
175	0xbfd01eed454d5fe0	-0.25188762443349155
176	0x3faf07b2cd3fe81d	0.06060560946930613
177	0xbfbd2d524d47203e	-0.11397280108133231
178	0x3fd02d4807e463bc	0.2527637555190798
179	0x3fb24bcd957d0215	0.0714691629373266
180	0xbfc6647391bcaf97	-0.17494053474490265
181	0xbfd45b7e84c508db	-0.3180843636111043
182	0xbfb73fd2a56208d5	-0.0908176091925584
183	0xbfd23be13ca7874c	-0.2849047748878675
184	0xbfcb8a4e8dc50cf7	-0.2151582901225095
185	0x3fad026d7ad9272d	0.05665914654362179
186	0x3fc80bd54d658400	0.18786112097862429
187	0xbf96605981cea676	-0.021851919696621334
188	0x3fbbc067a0b653bd	0.10840461419714038
189	0xbfc7843c342e52a4	-0.1837229971685207
190	0xbfb9fb34d2fa4519	-0.10148935461827015
191	0x3fc47bd4d57606f7	0.1600290338793042
192	0xbfbc9c7fbd5fb0da	-0.11176298497565842
193	0xbfbbb8ec395304f5	-0.10829044723051935
194	0xbfc4fedd4c5f68fb	-0.16402784566054848
195	0x3fb2c06548a7e9b5	0.07324822448564457
196	0x3fc63636b32554d5	0.17352946994166155
197	0xbfa03624bb8a2913	-0.031663082020786736
198	0xbfd12422ab6a062d	-0.26783053149856323
199	0x3fc8add9dc5c7411	0.19280551204511245
200	0xbfd196942d202400	-0.2748156014136498
201	0xbf5a946619f9c680	-0.001622295101608634
202	0xbfc426eb53210194	-0.15743772086171914
203	0x3fd164ce3ac976a7	0.27177768460192414
204	0x3fc47fd12814356b	0.16015066582660195
205	0x3faae396dc10e756	0.0525176185260096
206	0x3fb90078e6af9abf	0.09766345626813243
207	0x3f91256c77007176	0.016744322551049483
208	0xbfcc136c6842eb75	-0.2193427571381467
209	0x3fc096323ff449de	0.1295836269642469
210	0xbf9b4281155ce0db	-0.026620881012804225
211	0x3fbe24452aa2e5c7	0.11774093905378101
212	0xbfd344e2904f0e86	-0.3010794076219344
213	0xbfcada9ee8e7b202	-0.20979677555386905
214	0x3fb39b85d7fffb30	0.07659184001384456
215	0x3f7777845800a36b	0.005729214637576567
216	0xbfca2905bdf68f61	-0.20437690520804622
217	0xbfc117bae8b5d7fb	-0.13353668558892182
218	0x3fa82c3db0dcd450	0.04721253189055885
219	0xbfd00f42b9e1d629	-0.25093143608623564
220	0xbfaf035676aae6b0	-0.0605723399980439
221	0x3f62cf29c911d451	0.0022960487481733867
222	0xbfc1a4664daabdc0	-0.13782957832652976
223	0x3fcb23cdde368f4a	0.21203015661478225
224	0xbfd0b1a6976a5023	-0.2608429411568542
225	0x3fc931c3d1a050e8	0.19683120475440963
226	0x3fc4a46e295bd4d0	0.16126801509350353
227	0xbfa92f66f694021f	-0.04918977508532784
228	0x3fd2ed127a544814	0.29571973749364244
229	0x3fbb8d72e7b6f887	0.10762708813760656
230	0x3fd0cc670c73dcab	0.2624757405860218
231	0xbfa484cfb399cd51	-0.04007577006714292
232	0x3f8e2063454247d6	0.01471021227942863
233	0x3f9c47be7f772ef9	0.02761743214595833
234	0xbfd26eab4b515fe9	-0.2880047069097587
235	0x3fcf9f6a6f8b016a	0.24705248304781985
236	0x3fbf0eab10252818	0.12131756920021564
237	0x3fb72ed53855a157	0.09055836320260845
238	0x3fd1dfc3405409a3	0.27928239137704675
239	0x3fd34da70a65be85	0.301614532617329
240	0xbfcdb600d69652c7	-0.23211679914370206
241	0x3fbda4a98d40704c	0.11579379747894442
242	0x3fb3f99787d738e9	0.07802722040580402
243	0xbfb114cac7e88a52	-0.0667235124642869
244	0x3fd3470bba8f0276	0.30121129244438494
245	0x3fc7f5c155ae775e	0.18718735393207003
246	0x3fc1f6f4403c13c3	0.14034894119700256
247	0xbfb3b5a2aa5248af	-0.07699028642881232
248	0x3fbe79c7430049f1	0.11904569040078862
249	0x3fa9ea126a096d52	0.05061395210642651
250	0xbfc708a247d2bd16	-0.17995098597518994
251	0xbf9347f5870253b2	-0.018829189648915175
252	0xbfc94ea8778f748a	-0.19771295392903127
253	0x3f9db8f7173ede54	0.029025898736760716
254	0x3fc14f42b4bc9ee4	0.13523134064711606
255	0xbfd1fb0464b7f81c	-0.28094587169459984

param_1 f8 [256]
0	0x3fb4df9a76d60279	0.08153691674488951
1	0xbfd2de0177ea541a	-0.2948001547859477
2	0x3fc4363e8030893f	0.1579053998876336
3	0x3fd357b9af2cb91d	0.30222932917503603
4	0xbf9177b6dbb55875	-0.017058236274657596
5	0xbfcba3b0f0fe73f0	-0.21593295829089199
6	0x3fd34e83ce0d5e1e	0.3016671669224439
7	0xbfc0fd7eb41ad01b	-0.13273605150391252
8	0xbfad673c7c074c80	-0.05742825521488104
9	0xbfd11b64aa077a12	-0.2672969494286984
10	0xbfcf8122793f1c8a	-0.2461283771537846
11	0xbfc6f1fa986887e8	-0.17925960962116894
12	0x3f9f63673e8e46bd	0.030652630990124708
13	0x3fa2b6904de47887	0.036549100406987604
14	0x3fb133a8880f1e38	0.06719449350122708
15	0x3fab243127b66d20	0.05301049814007741
16	0xbf68ad74006946e1	-0.0030123963981986
17	0x3fc874c8b53f5ce9	0.19106396532035966
18	0x3fd19022663ec675	0.274422263954967
19	0xbfc2a3892e473a8c	-0.14561571845702692
20	0xbfcdeffa66e2002d	-0.23388605140280685
21	0xbfa8420defc71e03	-0.04737895538306349
22	0xbfd32b48770a3cb2	-0.299516788721074
23	0x3fcf080435268b5d	0.24243214221231826
24	0xbfc512680332db45	-0.16462421566185462
25	0x3f9fed1b35750d4c	0.031177926194925917
26	0xbfcf28e3546a14dd	-0.24343530294223728
27	0x3fa13ee289cdfa12	0.03368289882836363
28	0xbfd2a905081242e1	-0.29156614101616013
29	0x3fc5c2d4d4eb2b96	0.17000828167359988
30	0x3fd26f256af9457d	0.2880338234582139
31	0xbfbf4092af113519	-0.1220790555391499
32	0xbfc392d569a6cfbe	-0.15291850718278782
33	0xbfa0d71264062465	-0.032890867910347045
34	0x3fb36cbdae7e5dd3	0.07587800512407421
35	0xbfc92e0940a6b8d3	-0.19671741158294384
36	0x3fc88dd8c7d834cb	0.19182882078204097
37	0xbfc867a7e4bbb261	-0.19066332501042196
38	0xbfd40459dc9265b5	-0.3127655653020967
39	0x3f8f6939182ba1a0	0.015337415742991578
40	0xbfcf27c102a8bb98	-0.24340069417800403
41	0x3fc00c5c00bb412d	0.1253771785327528
42	0xbfcaeb73d85ce1d6	-0.21031044067946308
43	0x3fc9b17cc90ca8ce	0.20072898690097535
44	0xbf9330cc5e345567	-0.018740838289052954
45	0x3fa57640e3dce019	0.04191782743004086
46	0xbfc95f4dd048dd77	-0.198220946027259
47	0xbfcc9a24aeaccc39	-0.2234540799050551
48	0x3fb541e3c239ca24	0.08303664676513073
49	0xbfc3cbe8848878d1	-0.15466028663008172
50	0xbfb27839e4a4897c	-0.07214700538728452
51	0xbf8a9e6e6bca90a5	-0.012997496284988872
52	0xbfc5e327b10136fd	-0.17099472182092504
53	0x3fc7ea73d8bfe0db	0.18684242328141107
54	0x3fd1c961dc7580f2	0.2779163983268652
55	0xbfa60dddf0588b19	-0.04307454642209602
56	0x3fd0e6b3187b2f03	0.26408078566304044
57	0x3fcefad5a917d710	0.24202986485004674
58	0xbfcb08f039823fac	-0.2112102776341066
59	0xbfca70ee75655284	-0.20657139522758794
60	0xbf8d443ac6a4e780	-0.01429029387201175
61	0x3f90bef9e25a27af	0.01635351604503626
62	0xbfb9b8f38cc22982	-0.10047838388905997
63	0xbfbe4a2a1ff38d8c	-0.11831916122496561
64	0xbfa63975d5b28f7b	-0.04340713723766406
65	0x3fbed719c35f1d81	0.12046967525303921
66	0xbfd0d2937c207e90	-0.26285254594584107
67	0x3fc10c2a4be40f1b	0.1331837530670946
68	0x3fd140c421b93166	0.26957801144887694
69	0x3fc554fe2afb45a6	0.1666562757368812
70	0xbfc8f5c83f0a581c	-0.1950006778540122
71	0xbfd0b29517ab5817	-0.26089980422455156
72	0xbf78eb7f87754b43	-0.006083963547399321
73	0x3fd2795958e8a424	0.28865655596252027
74	0x3fc9d44803b3f070	0.20179081135563903
75	0x3fa450719903c1df	0.039676237038182675
76	0xbfcce6f60b79d10c	-0.22579837379783674
77	0x3fc14f9e44de2f2c	0.13524225580874238
78	0x3fc956ab9880c61c	0.19795746752201715
79	0x3fd19c40953b2db0	0.2751618821464161
80	0x3fb2270fc4342bb7	0.07090853252536432
81	0x3f82bcb3e99a819e	0.00914898449565343
82	0x3fb34bedf60b5bc9	0.07537734276716813
83	0x3fd1f10cb12620e8	0.28033749866200575
84	0x3fb4beb0678ffe9d	0.08103468445187408
85	0xbfc39fbd6c3267d1	-0.15331237586070626
86	0x3fb60b493940f983	0.0861097111491969
87	0x3fcebdf108dd9412	0.2401715558327458
88	0x3fa5b248059724c0	0.042375803644583154
89	0x3f5bf735c97f0a64	0.0017068887009236361
90	0x3fc2e46a3dfbe78b	0.14759567286074246
91	0x3fba10c1c7ca3f13	0.10181819083868175
92	0xbfd1f1ab946c74fd	-0.2803753804635816
93	0x3fc23d6a94429fbc	0.14249927748937619
94	0xbfadefe4fa7b5cf3	-0.058470874382402636
95	0x3fd1d8a79d6d3a58	0.278848556267723
96	0x3fd30e882829f6cf	0.2977619545198253
97	0xbfa09968b6850bf2	-0.03242041805290076
98	0x3fd2f9b9233c3161	0.29649189415865435
99	0xbfbea139d3fb9e48	-0.119647611859926
100	0x3fbd925b4b4391c7	0.11551447474955188
101	0xbfd13358f18d5d27	-0.2687589987667302
102	0xbfccbd5927e2bbed	-0.22452845046561212
103	0x3fcd828b92a4956f	0.23054642353342156
104	0x3fcfe0e65289c51c	0.24905089407142433
105	0x3f951ec0f62d82a4	0.0206251287703504
106	0xbfb9f12b05c2d3fc	-0.10133618250513615
107	0xbf9fb7f57f41cec1	-0.030975185291437727
108	0x3fcdec35b98fe19b	0.23377105293890285
109	0xbfc76575b832d058	-0.18278380865160915
110	0xbfc09b2be4768284	-0.1297354569951673
111	0x3fc71b9b173241ea	0.1805299628508828
112	0x3fd19e53f232a7f6	0.2752885689939143
113	0xbfd07a260747decf	-0.2574553557492267
114	0x3fc897781c0a46f9	0.19212247246883132
115	0x3fb77ce10a1a042d	0.0917492532407926
116	0xbfc5cb92722e1bab	-0.17027502608490627
117	0x3fc4b5a2107ad86d	0.16179300121956733
118	0x3fc27366ccb30570	0.14414677615244953
119	0xbfccfaaebf384c08	-0.22640022599134135
120	0x3f5753677b83e53d	0.0014236937113863556
121	0x3fc4e8e712cc7e84	0.1633576242247622
122	0xbfc8f8886eb6af32	-0.19508462339342142
123	0xbf981d2f92c24ea6	-0.023548835117778076
124	0xbfceb3e0346550a5	-0.23986437376391226
125	0xbfbf466c4ed17d32	-0.12216832088733012
126	0xbfc6d565326c9da0	-0.17838730775950484
127	0x3f6a461dc16373c3	0.0032072621498699674
128	0xbfcd0b8fe3abb37b	-0.22691534630521545
129	0xbfb2eb3cff5a8f02	-0.07390195116255074
130	0xbfc2339790e2f048	-0.14219946455512145
131	0x3fc3eb31354f2a25	0.15561499693861083
132	0x3fc02a04507e04cb	0.1262822526005379
133	0xbfd06564254ae9ea	-0.25618842737062997
134	0x3fd25b1197a8cb72	0.28680839357837506
135	0x3fc3cee205e2cd3a	0.15475106513404474
136	0x3fb2c65385ff428c	0.07333871861852453
137	0xbf8ce1ef843a8b36	-0.014102812979506756
138	0xbfca12d5533807a8	-0.20369974673672897
139	0x3fd2b37ac1cf24c6	0.2922045605342415
140	0xbfd3eba562274118	-0.3112576921967203
141	0x3fbf2a131c004da3	0.12173575814840958
142	0x3f7348e8f37b9e07	0.004708204236272723
143	0x3fd04b9d5088168f	0.2546151434365606
144	0xbfb350ee725cb526	-0.075453665657467
145	0x3f88264807ccd6a7	0.011791765916864106
146	0x3fc39e50a0fb087d	0.15326888904934668
147	0xbfd2502f1a2df3ae	-0.28614404255477666
148	0xbfd20898535184c4	-0.2817745984703601
149	0xbfc757619b8b912a	-0.18235416502933194
150	0xbfcc9f9aa10545a1	-0.22362072813352277
151	0xbfd3fa4eb9df68ac	-0.312152558819103
152	0x3fb3e9c1b3a61e9e	0.07778559337577426
153	0x3fc7f51baa6e7c11	0.1871676046548321
154	0x3fd280b1d1e33f82	0.28910489556164276
155	0xbfa32332e8d69b5d	-0.03737792103065971
156	0xbfc1d522c37de43b	-0.1393168882894161
157	0x3fcd759fe37c2882	0.2301521168486183
158	0x3fcbe15be6b09a66	0.2178149105468094
159	0x3fb43693b843747e	0.07895777939434542
160	0xbfc25d53f9cba815	-0.1434731454567674
161	0x3fd0891f05d99b93	0.25836921283046727
162	0xbfca08e87963ea03	-0.20339685370693425
163	0xbfd278cdd56fcdfc	-0.2886232933371671
164	0x3fc8033509206414	0.18759787507659154
165	0x3fa49d2899bf0613	0.04026152493271353
166	0xbfc486471a612a2c	-0.1603478316122432
167	0x3fbbab630deca809	0.10808390703155636
168	0x3fc5978396ddf5c3	0.16868634096674215
169	0x3fcbe47982a21d17	0.21790999296738597
170	0xbfc1a34953b05577	-0.13779560648314845
171	0xbfd333ef46c47962	-0.3000448409165043
172	0x3f7a0185808154e8	0.006349107257922905
173	0x3fccd37b101b2813	0.2252038792269678
174	0xbfc7a732f832fcc5	-0.1847900115880973
175	0xbfa98a7a743745d0	-0.04988463085795625
176	0xbfc3b802ad81aa8d	-0.15405305358884328
177	0xbfd3b29c22751f36	-0.30777648320189444
178	0x3fd02191296ff9a8	0.25204876944180876
179	0xbfcd8b44786c85d2	-0.23081260566782064
180	0x3fc5989000397831	0.16871833811723172
181	0xbfb8d61509007ec7	-0.09701663465284148
182	0xbfc1ff63302fdcbb	-0.1406063065803432
183	0x3fd1da02137f4ab2	0.2789311590578719
184	0x3fb973b315afe68a	0.09942168502302642
185	0x3fbe43af083bcb1d	0.11822027159705013
186	0x3fc505202f707ad3	0.16421892467857066
187	0xbfb9c11768d2d9c0	-0.10060259160204676
188	0x3fa49d9ba0c2aed8	0.040264953016359406
189	0xbfc299f604d49e8c	-0.14532351718775194
190	0x3fcb1523c2c2336a	0.21158263215729828
191	0x3fb01427047ea7f2	0.06280750140891181
192	0xbfc4c5b6f3756fdc	-0.16228377235063263
193	0x3fd02e5b6dd29d13	0.2528294155585666
194	0x3faa2d691e325c87	0.05112770551311834
195	0xbf69bf519a12557d	-0.003142985704992439
196	0xbfd2d7b5cac30560	-0.2944159011932097
197	0x3fd0966e3118a5cf	0.2591815452056751
198	0x3fd24e87e315763f	0.2860431401839811
199	0x3fa445406ed51497	0.039590848473872224
200	0xbfa29d7b9128dc31	-0.036357747525862634
201	0xbfb6bcd50bdf7922	-0.08881885089747191
202	0xbfc2c70b3a8b9ea2	-0.1466993366113814
203	0x3fa82246371c382b	0.04713649199230504
204	0xbfce1b7883d64b79	-0.23521334111554973
205	0x3fd0f78a581a28d7	0.2651086674092204
206	0xbfca3b877d4efaca	-0.2049416887147884
207	0x3fc3e017596f0794	0.1552762209594759
208	0xbfbf443b8ae6f3d0	-0.12213489667097055
209	0xbfc62cfc675a212e	-0.1732478623055242
210	0x3fa2bd318fc1957d	0.03659968261562605
211	0x3fc57687c8e2c42a	0.16767976101758225
212	0x3fc25af59b37c150	0.14340086058610746
213	0xbfc58db6ca29a23d	-0.16838726874563462
214	0xbfbb7170f653c4bc	-0.10719972623680268
215	0x3fcddbca34ef90ca	0.23326995453601845
216	0x3fc212922b7d4763	0.14119174121384068
217	0x3fc137eed37336dc	0.1345194370718933
218	0xbfc2b547fc1dfe3c	-0.14615726290138464
219	0x3fc7a395f144a617	0.18467973976775973
220	0xbfb6ec628debc846	-0.08954444851750151
221	0xbfafee736e8e112d	-0.06236611103580212
222	0xbfc132a5f930941e	-0.13435816447705035
223	0xbfcea66c564440e0	-0.23945383274304444
224	0xbfa9c726d22daa82	-0.05034753146795358
225	0xbfd38d8bc8e68237	-0.30551428431684563
226	0xbf9c8dd61f246254	-0.027884812975658882
227	0x3fc2371a009ae509	0.14230656652015508
228	0x3fd2a64f4f43e38a	0.2914007448267105
229	0xbfd10e7972e574d1	-0.266508447841102
230	0xbfc1b49902139d8d	-0.1383239040508041
231	0xbf6e684fb11acafb	-0.0037118488770259118
232	0xbfcaaefae0191d46	-0.2084649652699488
233	0xbfcf04f635f7d8ef	-0.2423389209286095
234	0xbf9ee16466dfe4d6	-0.030156677988974
235	0x3faa2455f23bee68	0.051058469600289424
236	0x3fc9ec14f7e169b1	0.20251714805165258
237	0x3fd426507f49b7da	0.31483852796998024
238	0x3fc634121a4eab49	0.1734640720800036
239	0xbfc68f065e02a95f	-0.17623977270461474
240	0x3fc4132c2fb8c396	0.1568351014152795
241	0x3f980fdd1bd32e77	0.023498015235232175
242	0xbf9fdb7f7dba1dcc	-0.031110755966919076
243	0x3fd1a315aaeb1f1a	0.2755788964391158
244	0x3fc05c3a5ce53f45	0.1278145745841305
245	0x3fbd6aecb0c2feb2	0.1149127894923321
246	0xbfd3c34235b03653	-0.3087926410961234
247	0x3fcd8dda2700c00b	0.23089148430290182
248	0x3fc7be72ab54ff5c	0.18549950948544847
249	0xbfc046ca1738f830	-0.12716032155907575
250	0xbfc0d44dfa6dd339	-0.1314790222928879
251	0xbfd212ec7f3f856e	-0.28240501810622376
252	0xbfd22e1800475a14	-0.284063339492975
253	0x3fbb4c01ecd36a7b	0.10662853271370835
254	0xbfc96681b9bd155e	-0.19844075745838102
255	0x3fd124ddf12530eb	0.2678751807150223

param_2 f8 [128, 256]
0	0x3fa19103fc82d581	0.03430950601015593
1	0xbf90805c685ee362	-0.01611465823200165
2	0xbf6862ebdc8f6831	-0.0029768568679005227
3	0xbf8cdc172b42ceb0	-0.014091664321632308
4	0xbf9c83cf4436c8b5	-0.027846563852741386
5	0xbfaf7cff2d88a37a	-0.06150052481490938
6	0x3f756ea1c964d6cc	0.005232460002209737
7	0x3fb2fa8c1b57d8dd	0.07413554828221743
8	0x3fab1a9bebc173a8	0.05293738606335491
9	0x3fa6ad16ea558e8e	0.04428931818509084
10	0x3fa554accd8d71b7	0.04166164406953803
11	0x3faaba281cb64daa	0.052201512818238996
12	0xbf849950e9387adc	-0.010058052174881586
13	0xbf941293654782af	-0.0196021109167101
14	0x3f845ab648345581	0.009938644484047245
15	0x3fa821e01ddd6b4a	0.047133449216480175
16	0xbfa9fdad7431266d	-0.05076353114470753
17	0xbfa1bef8b21a1ac4	-0.03466012167068791
18	0xbf8b8069b5e6a01c	-0.013428521979975065
19	0xbfa21fc63a2c19b7	-0.03539866886244474
20	0xbfa1abfff874aab1	-0.03451537998110633
21	0x3f8640be78e85a37	0.01086567694168848
22	0x3fa5182c19eeb182	0.04120004478986329
23	0x3fa5278dba878742	0.04131739522905643
24	0x3fb23edbf16ee4f2	0.07127165455212373
25	0xbfa50ff7fb269c4e	-0.04113745632940234
26	0xbfa220ee38959d3a	-0.03540749016502294
27	0xbf9d5ea3a7dc1857	-0.028681332702966546
28	0x3fa2d23a51f6a390	0.03676016092806045
29	0xbfa2bceeb03a3bb2	-0.0365976896401813
30	0x3f91af7d2a352263	0.01727099962343671
31	0xbfa058d7832d843e	-0.031927809489169054
32	0xbfa328ff86b669e2	-0.03742216605606409
33	0xbfaa690c436d9565	-0.051582701903309304
34	0x3f9e7ba9c7312f0c	0.029768612654421253
35	0xbfa23ff85ba87141	-0.03564430350181392
36	0xbfa9a6ce44e05448	-0.05010075178885437
37	0xbf811928e5366463	-0.008348769660005034
38	0x3fa01b86320e9e31	0.03145999299095726
39	0xbf842da285a1b66b	-0.009852666571727306
40	0x3fb07dbec7404375	0.06441871990706523
41	0x3f5d4877df332713	0.0017872973083278884
42	0xbfa0606b3c4187c4	-0.03198561773821454
43	0xbf6a540887b5428d	-0.0032138983348562523
44	0x3f5082d8e86414ab	0.001007758926392636
45	0x3fad05cb34a06dfa	0.05668482797065262
46	0x3fa73581fb62a8d4	0.04533010667485518
47	0x3faaeabcf6368e42	0.052572159819899614
48	0xbf56ed14006fff45	-0.0013992972687901378
49	0xbfaa3adff01e7d6d	-0.051230428754247416
50	0x3fb112eb6346ae4a	0.06669493840916477
51	0xbf96c803965b9cb6	-0.02224736790858791
52	0x3fa04ccb69ada8d9	0.03183589615839972
53	0x3fb0e7ccb9558ddb	0.06603698277245178
54	0x3f7a78e23c585451	0.006462939961712059
55	0xbf88e3a33bc7e8bf	-0.012152934324138774
56	0x3fa199a520ee3f0e	0.034375343580107395
57	0xbfa7235241936991	-0.045191355233060844
58	0x3f78b390ad51fbaa	0.006030621666581229
59	0xbf8f8aee13010e2f	-0.015401706652602957
60	0xbf9044b5e7276a08	-0.015887109979170005
61	0x3fa4675b44fde831	0.03985104767976145
62	0x3f791df373b0b1c0	0.006132079109232469
63	0x3f9a872e09c23bdb	0.025906295152306896
64	0x3fac483e5d6f0bae	0.05523867502736067
65	0xbf8d3b243675da85	-0.014272959625242674
66	0x3f8967a94cbefc9d	0.012404749540904364
67	0xbf92a95c3eb30caa	-0.01822418339430657
68	0x3fa1a714d2f7e678	0.03447785449311608
69	0x3fa4f82c3db7ce97	0.04095590833085543
70	0xbfa0277006f9d411	-0.0315508850589269
71	0x3f75d44a46ffd8bb	0.005329408784737473
72	0x3f770751e852904d	0.005622215224466554
73	0x3faa85008df3e038	0.051795975998118526
74	0x3f924f5271e0430f	0.017880714607659217
75	0x3fb051371f7011be	0.06373924748920154
76	0xbf9d7b254091fdaa	-0.028790075365120828
77	0x3fa51ad28f4ff593	0.041220264429266205
78	0xbf78265d81cbf916	-0.005895962964812781
79	0x3f8cda0befee0104	0.014087765941213089
80	0xbf96783f6cca31b3	-0.021943083777431215
81	0xbf77b72618651d37	-0.005789898690927323
82	0xbfab7444be973aac	-0.05362143351122958
83	0xbfaa6e5f85288432	-0.051623330120726854
84	0xbfaef9ef3134db74	-0.06050059772171937
85	0x3f9a77674bf48ccf	0.02584611321539115
86	0x3fa05456a57101ee	0.03189345140026832
87	0x3faf4e0d76d762d8	0.06114236903858278
88	0x3fad5165a7adb66c	0.05726163551194649
89	0xbf82ac5561382559	-0.009117762593649091
90	0x3f6dd255ce7be896	0.003640334692929302
91	0x3fa8d670daa96b2d	0.048511053745377765
92	0x3f8e394921c760bb	0.01475770124754693
93	0xbfaa7e7a07465293	-0.05174619044115505
94	0x3f71fd6a3af1ff6a	0.004392065965589479
95	0xbfab13f4c45f85da	-0.05288662812359819
96	0x3f77aa6d33cabe82	0.005777765819103943
97	0xbf89acf04ae6e52a	-0.012536885534120207
98	0x3fa0f6e493b4735c	0.033133643179303646
99	0x3fa3b7a4ca78253a	0.03851046535062115
100	0xbf3af8747882f8ca	-0.00041153758548863036
101	0x3f51fbbc6ec1536d	0.0010976162111735147
102	0x3f9d75b75db13fe9	0.028769364446190968
103	0xbf907906f560b07c	-0.016086682058969334
104	0x3f8d9d1a753eefe4	0.014459807112750363
105	0xbf8d60dbb41aed0c	-0.014344898637651336
106	0xbf9856f894c20c24	-0.023769268111674915
107	0xbfb48b11679ae6ab	-0.08024700908108666
108	0x3fac001c0053556b	0.05468833450292262
109	0xbfa7a189ed674dd5	-0.04615431807510687
110	0xbfab855dec470e5b	-0.05375188359496682
111	0xbf982cbf05bbc68c	-0.023608193135209052
112	0x3f9e0f8e7e2ba940	0.02935621876796657
113	0x3f91f5d6b6456bcf	0.01753936278815243
114	0xbf9e0ecb57a4a489	-0.02935331079894302
115	0xbfaec0a895ed862d	-0.06006361799405755
116	0x3f9564dd93209c09	0.02089258394712704
117	0x3f8caee060b8e822	0.014005425407152276
118	0x3f9f9e444e55ce31	0.03087717750663738
119	0x3f98d854e333165a	0.02426273953167022
120	0x3fa8a5fa6b2aacce	0.04814131315409896
121	0xbf9cc7496318d8da	-0.028103968308834527
122	0x3f9b4fd145a99e26	0.026671666981569107
123	0x3fa1d3e9342312be	0.03481987725675627
124	0xbfa0c3e6c13ec9e8	-0.032744608964453026
125	0xbf664c97c28d936d	-0.002722069174000577
126	0x3f91888d2fc6919a	0.017122465172762703
127	0x3f9a6601458318e4	0.025779743068391606
128	0x3f8648e740d946d4	0.010881239573027036
129	0xbf905c09ffa6c866	-0.015976101139763797
130	0xbfa2bf560724dd73	-0.03661602818686562
131	0xbfa9ae6392fd40d1	-0.050158607190157085
132	0x3fa91b6048a7c46c	0.04903698813348786
133	0x3fae807c320af39f	0.0595740138137224
134	0xbf9082a9f597c7ba	-0.016123443236160752
135	0xbfa18299c9507ed6	-0.0341995294804726
136	0xbfaf80ac6707bbbb	-0.06152857549374554
137	0xbfa3af6c890d7189	-0.038447753648799106
138	0xbf8f0625148398dd	-0.015148439110316431
139	0xbfa307ba511d0b17	-0.0371683334365313
140	0x3fa090b408f211d9	0.03235399827193292
141	0x3f985d7a81af7d43	0.02379409233605868
142	0xbfaceac325f51d6a	-0.05647859419201036
143	0x3f9a90788fd27740	0.02594173791714316
144	0x3f9cf95d3a5fc54d	0.028294998824951723
145	0xbfa7d2b35dc23a26	-0.046529393382219106
146	0x3fa1dcc708f0247f	0.03488752349955692
147	0xbfa8ead756dd7a00	-0.04866669593205941
148	0xbf88269fa2808900	-0.011792418619795075
149	0xbfa0fb39f5caeb6f	-0.033166705373750875
150	0x3fad8c415cbe62ad	0.05771068818211709
151	0x3f9edfd6ff2ce7e2	0.030150756191893786
152	0xbf9bcb0af8741ced	-0.027141734518434758
153	0x3fa4dcfcc582701d	0.04074849997525141
154	0xbf9800ece6bdbad0	-0.023441030104943306
155	0x3fb1cadb11a4b2be	0.0695015829157439
156	0x3f647718c25ccba8	0.0024981959894829382
157	0x3f963aafc0314287	0.021708246331686467
158	0x3fa618632254428c	0.04315480989510431
159	0x3f9c21ca171a1bdd	0.027472646389039446
160	0x3fade017c5577b23	0.05835031780201507
161	0x3fa8b748d096f9d6	0.048273349249473504
162	0xbfa5962c332abc1b	-0.0421613514384875
163	0xbfa112b8a830a196	-0.03334595730877081
164	0xbfaaa65279d06d8e	-0.05205018746365929
165	0xbf858fa88b934f22	-0.010527912864212011
166	0x3f84d9c610c993b2	0.010180995356856435
167	0xbfae2dfdb7130f3e	-0.058944634054141506
168	0x3f82665281eae2be	0.008984226789253365
169	0x3f90f7b9b29a36ba	0.016569997335458032
170	0x3fb20828bd7257a5	0.07043699860727644
171	0xbfab62f8add35624	-0.05348946687597003
172	0xbfb23f752a5f57bf	-0.07128078731997699
173	0xbfa24e86c92a625e	-0.03575535970339126
174	0x3fb1af9b9ef14116	0.06908581381253884
175	0xbf890ec63d0df158	-0.01223521112273633
176	0x3fad87adcf590732	0.057675773201948735
177	0x3fa0115fccb07f19	0.03138255475664504
178	0x3fa0b54db63510cd	0.03263323640070013
179	0xbfa76642a98b2670	-0.04570205993293264
180	0xbf823e872b09ccaf	-0.008908325196193749
181	0x3fb2489c6eb05c8d	0.07142045690885564
182	0xbfad2e5a843a2003	-0.056994274750707084
183	0x3f90226cd832e9e2	0.015756321616871356
184	0x3ee125e9b9c664b0	8.176850138141102e-06
185	0xbf9ccf1acad38025	-0.02813379157021258
186	0x3faf4fdde7acc744	0.061156210451726284
187	0x3f9124951da30ee3	0.01674111359967768
188	0x3fa073b6b4c88367	0.03213282543970913
189	0x3fa0e5ece40120ad	0.033004191238945914
190	0xbf80cb21b844a289	-0.008199943004528325
191	0x3fa08666e7636964	0.032275405641217586
192	0x3fa8696e21269108	0.04767936854048754
193	0x3fa1d298846c6206	0.03480984322067475
194	0x3fa41b041d4e3b3d	0.039268616273253155
195	0x3f589d3d1c50d994	0.0015023323806083498
196	0xbf86ebdfd43f79d6	-0.011192082085412485
197	0xbfb0b3106250544b	-0.06523229980696603
198	0xbf81c3ecb5f3664f	-0.00867447786588396
199	0xbf91ca9d83c98c7d	-0.01737447850099415
200	0xbf9ea16564153c8d	-0.029912552102640922
201	0xbf83ac030d422102	-0.009605430452453326
202	0xbfaedff52de96e2b	-0.06030241189429505
203	0x3f9864476eb4fdc6	0.02382003415300262
204	0xbfa322be79883104	-0.03737445100350281
205	0x3faafc994ba5155d	0.052708425983420716
206	0xbf7a261083334f2e	-0.006383957387885704
207	0x3f9b5abaef7e7bf8	0.026713295810278453
208	0x3faddd866b5087dc	0.05833072719566676
209	0xbfab23fd3d966bc6	-0.053008950965896015
210	0x3fad42d4d34b7023	0.05715050772934684
211	0x3f8b67a1329f729e	0.013381251675974423
212	0xbfa568176be5c675	-0.041809780045594026
213	0xbf9337e97916179a	-0.018767974868317695
214	0x3fab4bbe47ee0c1d	0.05331225040483665
215	0x3f908dbb3274fffe	0.016165661768582133
216	0xbf913e836013dda3	-0.016840031375037545
217	0x3fb404b25c576d35	0.07819666628295326
218	0x3fa80729c44aed76	0.04692965050841284
219	0x3f98c4699a67046f	0.02418675427339106
220	0x3faab350f8af0696	0.052149324757477064
221	0x3fa3f0d318f11382	0.03894672088112029
222	0x3f5a1840c071c15b	0.0015926964131517038
223	0x3f8952ab76b169eb	0.0123647113415943
224	0x3fa02d5aeebd5ce0	0.031596032755879966
225	0xbfa3d6ed105ace20	-0.038749130484031946
226	0xbf992df23db54441	-0.02458933354984461
227	0xbfa394cbc24b3fa0	-0.03824459788086121
228	0xbf9798df50c414e3	-0.023044099144517893
229	0xbf9fe60c01111416	-0.03115099674711893
230	0x3fa7d588a8b7054a	0.046551008792003204
231	0x3f92ebdac294ad1b	0.018477838636653404
232	0xbf9ef64e6117b7c7	-0.0302364584694528
233	0x3fa1e00b3cffa73a	0.0349124443017232
234	0x3f8e2d795e9fc3a0	0.014735172462651935
235	0xbf85376027467368	-0.01035952682360071
236	0xbfa533b7ef85a0d4	-0.0414102058301197
237	0xbfab638d701881b0	-0.05349390023571077
238	0x3f9c8c41fe69378a	0.027878791001334537
239	0xbfa17791854a3bad	-0.03411535980296008
240	0xbfa69b14c9c7ee11	-0.044151925689188805
241	0xbfafff807d618139	-0.06249619989898964
242	0x3fa3c17c4179779f	0.03858555125474016
243	0x3f9ab7903493431a	0.026090863427103185
244	0x3f89f0db3e367f58	0.012666428409658856
245	0x3fb1ee5547f2bedd	0.07004292494343241
246	0xbf8c1f3bef44d377	-0.0137314493555125
247	0x3fa140b4ef4a9190	0.03369679852520158
248	0xbfa1282dbef5744a	-0.033509664116288265
249	0xbf9c612b81199fbb	-0.02771442389931143
250	0x3fa9462dfebad9ed	0.04936355337615681
251	0x3f964d63a48595e0	0.02177959148084152
252	0xbf5550948600cea8	-0.0013009500908198
253	0xbfb0b5f0a1c3aa55	-0.06527618359874883
254	0xbf78513d03209c3f	-0.005936849907846541
255	0x3f9dfa8dcabfe263	0.02927609968171153

param_3 f8 [128]
0	0x3fabb40e53d3cd91	0.05410809300692699
1	0x3f415ec67b33fbdc	0.0005300969263827243
2	0xbfae6d09848f3022	-0.05942563765674459
3	0x3f7326f75970c084	0.004675832947256823
4	0xbfa430a88e109884	-0.03943373426618371
5	0xbfa377be67029333	-0.03802294738242153
6	0x3f89b224bac2bd56	0.012546812962993908
7	0xbfa182eecbd60d6b	-0.03420206297144087
8	0xbfa24e22560e7fff	-0.03575236607071019
9	0x3f74f8b01bd1f3b9	0.005119979786397382
10	0xbfa0ee3b7b2068ed	-0.03306756856928126
11	0xbfa8ed5c8a3811db	-0.0486859244083779
12	0xbf877c798c3aa055	-0.01146788558192228
13	0xbfacac0ebe0492fc	-0.05600019521287966
14	0x3fa9f0d040d3830c	0.050665386117321715
15	0xbf78d0167acaa629	-0.00605782300105199
16	0xbfaf2974e72f2dc7	-0.06086316415857201
17	0xbfa19f4cdd43512d	-0.03441848946536861
18	0x3fad4ce33acfbd80	0.057227230958114994
19	0xbf3d90d415e07684	-0.0004511373316534522
20	0xbf920fe73fb69bdf	-0.01763879133582324
21	0xbf97aa6d15f6c69a	-0.023111061540197576
22	0xbf8541694f8a2b7b	-0.010378668537006188
23	0xbfa27273b6d08ccd	-0.03602944952606322
24	0x3f9fe3652f360c88	0.031140881544626825
25	0x3f510250cfbca417	0.001038149754956535
26	0x3fa0177d41be3550	0.03142920901800983
27	0xbf9f706b7b5c481c	-0.030702285198522458
28	0xbfafe8341664aedb	-0.06231844685893658
29	0x3fadd6b22a81528c	0.05827862519132507
30	0x3f58b61c3bc7da81	0.0015082622259094127
31	0xbfaae58d5debad61	-0.052532594408911455
32	0xbfa95c23d3d0fd35	-0.04953109703682871
33	0xbf80b8eef520a68d	-0.008165232520769972
34	0x3f98fe6b07d32163	0.024408027985175617
35	0xbf8a75ae1ee5273e	-0.012919769590229554
36	0x3fa47d60e5f0a903	0.040019062107903756
37	0xbf95e1610141edc4	-0.021367564870599556
38	0xbfad14cd180da212	-0.05679932516688181
39	0xbfaf7828565688ab	-0.06146360448771423
40	0x3fa70122a31eedfa	0.04493053666325504
41	0x3faf016e0fca8a05	0.06055778448832786
42	0xbfa780393e4cc417	-0.045900143485035176
43	0xbfac07862bb2892d	-0.05474490435996624
44	0x3faa85a79e55dd29	0.05180095489316223
45	0xbfa98d3507cbf596	-0.04990545005965001
46	0xbfa161d3672b2647	-0.03394947656995533
47	0x3fa34e2f998e5691	0.03770588635886186
48	0x3fafdef9a3a892d1	0.06224804041656785
49	0xbf5ca4bffca9ab16	-0.0017482638237661988
50	0xbfa282bb3c8da5f2	-0.03615365137268246
51	0x3fa64103112ee7eb	0.04346475205188923
52	0xbf8b0e66a4d86190	-0.01321106138770814
53	0xbf9d1a0ed83e76e2	-0.028419715832220478
54	0xbf53a07bed86096b	-0.0011979303581886823
55	0x3fa6c5661bb3ce47	0.04447478378451968
56	0xbfa11683bc2592fd	-0.03337489768708755
57	0xbf837f943671a92c	-0.009520681296824117
58	0xbf7c8c17688387b6	-0.006969539106849545
59	0x3fa54c025fc30724	0.04159552973716377
60	0x3f96875683f98011	0.022000648312655417
61	0x3fa1f37e256896d3	0.03506082731864315
62	0x3f98c0dd8a75279b	0.024173223090918943
63	0x3f87b99bad67e92e	0.011584488133838802
64	0xbfa7869b78791eeb	-0.04594884725207556
65	0x3fa54f0a1e293e25	0.041618648702407314
66	0x3f8b769e20aac44c	0.0134098390311427
67	0x3f99bffdd7b3bdc8	0.025146452227031962
68	0x3fa1d701c8dba641	0.0348434980094905
69	0xbf981a381b6e1176	-0.023537518190566563
70	0xbf800c299814ebc3	-0.00783569808355889
71	0x3f75240cefcb33f0	0.005161333593332693
72	0xbf941e64abd4d095	-0.019647191035986628
73	0xbf9ee843f0089eab	-0.030182897115223522
74	0x3fa1b7a0a9123148	0.03460409225326316
75	0x3fa03d25733a3124	0.03171650916655924
76	0x3fa53c3313f56539	0.041474910913800796
77	0x3f992d4d37071ad1	0.024586874469401835
78	0xbf981951de47c633	-0.023534087364117617
79	0xbf9624ca2c625e09	-0.021624716719626878
80	0x3f6c7613c2bfaddc	0.00347427234190943
81	0x3fa57a655e658203	0.04194943215657434
82	0xbf93acaa64d29a1a	-0.019213354495741887
83	0x3fa105250461eb7f	0.0332423751687747
84	0xbf98df10b03a9b61	-0.024288426166687475
85	0xbf94ab3343b8cbff	-0.020184327133573984
86	0x3fa026c33eeeb651	0.03154573577135678
87	0x3f96db8e901aae66	0.022321918054031185
88	0xbfa2ac62de54f45b	-0.03647145236980328
89	0x3fa4edea75a8a8e6	0.0408776539446352
90	0x3fa2370e922ee7ea	0.035576300949699505
91	0x3fa308e5e2c56260	0.03717726128769949
92	0xbf6e5c42b3b5edc1	-0.003706102635701675
93	0xbf95ef230765e854	-0.021420047117750876
94	0x3fa662d339c4792d	0.04372272567910538
95	0x3f86951ffc2de16d	0.011026620753668859
96	0x3fab952a9d046764	0.05387242476190471
97	0xbf9f82988501e24d	-0.030771620863079985
98	0x3fae70aa9ea43bb3	0.05945332705061137
99	0xbf8eeb90fc864f2f	-0.01509774466175137
100	0xbf8d934170974bd4	-0.014441024063591636
101	0xbfa0b73a5f4ff08a	-0.032647918829725134
102	0x3fadc2f9b8a55109	0.05812816981293351
103	0xbfad75526a402bea	-0.05753572031979799
104	0xbf6b48231b7ba767	-0.0033302961054361593
105	0xbf9137e62f418e6e	-0.016814800867349815
106	0xbfa5cea149407864	-0.0425920869749781
107	0x3f9b4b8fa49f387f	0.026655430243231578
108	0x3fa97e17c53d0c65	0.04979013712593242
109	0xbfa0695c8287efcb	-0.032053843435249606
110	0xbf33357d3772af64	-0.00029310519262070443
111	0x3f8405d4928fb840	0.009776745531748898
112	0xbf8c08eabc7e76d4	-0.013688882710819618
113	0x3faafa7b10dd4628	0.05269226628173512
114	0xbf73b426366b6e29	-0.004810475604894595
115	0x3faee5df175f370d	0.060347529986399896
116	0xbf9a36b7bc82bf27	-0.02559935653761083
117	0xbfab4fea8ed5e6bf	-0.05334408753965424
118	0x3f83310dffc46fc0	0.009370908134364586
119	0x3fa4b19a8006ef8d	0.04041750729399416
120	0xbf8c92610736fb29	-0.013951070816685967
121	0xbfa4275719558583	-0.039362642138040214
122	0x3f9e7ea5fa9431df	0.02978000013267656
123	0xbf9d53a31056c29d	-0.028639362213371034
124	0x3fa14361e2b15a11	0.03371721164937836
125	0xbf9e6c3fbeaa5f24	-0.029709812176036313
126	0x3f7d54e24f61ccad	0.007161029838346139
127	0x3fa8cfb3c8c582a3	0.0484596426565578

param_4 f8 [64, 128]
0	0xbfadd7e215fdc641	-0.05828768270920338
1	0x3fa80215f0c23fef	0.046890912665844435
2	0xbfa7ea467109f3fa	-0.04670925264233712
3	0x3f935fde2809700e	0.018920394128471733
4	0xbf94c693df2a60f4	-0.020288763519233435
5	0xbfae720b714494ef	-0.05946384198822751
6	0x3f78962232cfa15e	0.006002553546729265
7	0x3f864b02326500dd	0.010885255015296408
8	0xbf83633013937144	-0.009466529462252134
9	0xbfb13a4938621297	-0.06729562403240617
10	0xbf96068ee04a0bd1	-0.021509392203835468
11	0xbf9c343d9c71db85	-0.027543032334928625
12	0xbf744fe7565ba3c5	-0.004959014569728863
13	0xbf3ebf78790f4ea7	-0.0004691762088075792
14	0x3fb234bd80610e1f	0.07111725219970609
15	0x3f8bc249a434468f	0.013554168056120445
16	0xbfb31b31fead4678	-0.07463371722885792
17	0x3fb064c619806bff	0.06403768656348062
18	0xbfbd9bfaa0af0907	-0.11566130087797798
19	0x3f9bb1eb51f83546	0.0270458954601527
20	0xbfaa353a3835beeb	-0.05118734298855351
21	0x3faf8d61caafca4d	0.06162553405001301
22	0xbfa9b593f487931a	-0.050213454818537964
23	0xbf903d0b99df7d10	-0.015857869402563785
24	0x3fb03c2a9c23e963	0.06341806709307245
25	0x3fb7be3e75f3ae5f	0.09274664287266308
26	0xbfaaa717e75737c8	-0.052056071271735116
27	0xbf9a695743b6fd1d	-0.02579246855543459
28	0xbfb6c7183ef9b2e4	-0.08897544419751174
29	0x3fb30d5dd1666294	0.07442270624449981
30	0x3fb3c01b3ccaa1bf	0.07715006097954012
31	0xbfa543e9d6ba8a21	-0.04153376337241733
32	0x3f92aee2463b417e	0.01824525407465804
33	0x3f6df9195b6443bd	0.003658818745983143
34	0x3f603efd02821cad	0.0019831601712812703
35	0x3f52cabfac779938	0.001146971875522219
36	0xbf5c7d2e335029d3	-0.0017388297249022369
37	0xbfaba433f9426a7b	-0.05398714463918438
38	0xbfb25e86afd454bf	-0.0717548541327515
39	0x3fa64dbe84444d68	0.043561891218042714
40	0x3fb1b4ca5cc038d2	0.0691648937647387
41	0x3fb1a34281d01de0	0.06889739674817674
42	0x3f9ded0d77b5bdfb	0.029224596435083666
43	0x3fb259f8f89e4e3b	0.07168537206444452
44	0xbfb25d726e1668b4	-0.07173838794406856
45	0xbfab5a2d8ede98db	-0.05342237824452108
46	0xbfa61701194c70d7	-0.043144258821685426
47	0xbfa274f34f11698c	-0.03604851093469383
48	0x3f9d4a7789f7e841	0.028604381366655444
49	0xbfa2f004072ad223	-0.03698742473116947
50	0xbf92304a7f4e8d7b	-0.017762340564912087
51	0x3f9c4357b1122480	0.027600641424701866
52	0x3faf4d6db2a68c5c	0.06113760762971118
53	0x3f7595136e1498f4	0.005269122980541708
54	0xbf9601fe01ff1763	-0.021491974708417582
55	0x3f99042ac5968604	0.024429958638966923
56	0xbf7f059182975cde	-0.007573669814028265
57	0xbf93c6cc65f8b2fa	-0.019313043330998682
58	0xbf7cc918e7e96fe8	-0.007027718819326602
59	0xbfb443246b2dbc61	-0.0791495095888748
60	0xbf975ac776281f20	-0.022807232462610405
61	0xbfad18e94efefe0b	-0.056830683606218534
62	0xbfb543976d941540	-0.08306261468176945
63	0xbfa5dd12c4b4096f	-0.04270228053248359
64	0x3fb1801ea0b1ce44	0.06836120055395961
65	0xbfaf1af40a3c4675	-0.060752512216038314
66	0x3f6cb907aff9a244	0.003506197943171226
67	0x3f72170e4696ef5d	0.00441651894055525
68	0x3f70384a0d8917c5	0.00395993163016856
69	0xbfba00381ae70bcf	-0.10156584412383939
70	0x3f9ccb552b9b3ded	0.028119402681850692
71	0x3f96d2880b616d7a	0.022287488646140365
72	0x3fb322bb718ecee9	0.07474872133644407
73	0xbfb40aff15d72d40	-0.07829279216018836
74	0x3f8cec6f4cc3cc10	0.014122838525940679
75	0x3facde910b8bfe73	0.05638554826691413
76	0xbfb386fe89df8148	-0.07627859941522275
77	0x3fb0ab2c0478e23c	0.0651118765753233
78	0xbf92e3efc825e730	-0.01844763430697255
79	0xbfa534168b356098	-0.04141302537272046
80	0x3fb924ca43d58979	0.09821762233835853
81	0xbfaa80c7d93562d7	-0.05176376844855717
82	0x3f5527f67ca2cfb7	0.0012912661646113774
83	0xbf98a37bea8fae5f	-0.02406114215038568
84	0xbfabce5c8396995f	-0.05430878740598887
85	0x3fb64206dbe169ba	0.08694498890091654
86	0xbfb19a0b6ce0319e	-0.06875678451633013
87	0xbf95087d399d89bb	-0.0205401960769309
88	0xbf9bba4f8710e22c	-0.027077906245013647
89	0xbf93d9a17c91be72	-0.01938488314448112
90	0xbfb481f399e8c068	-0.08010790355251773
91	0x3f971b53110d0ddb	0.022565172115049364
92	0x3f9604591bf4a4a0	0.02150096161964099
93	0xbf9e4a5ee794a8d5	-0.0295805767865794
94	0x3facd412905753a2	0.0563054848859459
95	0x3f8bb3601ad7e774	0.01352572519225579
96	0x3fa5cdb6b6e613b9	0.04258509619379631
97	0x3fb22968566d5cd4	0.07094432935751921
98	0x3fb177214d5bfd82	0.06822403086333931
99	0xbfb14105410e2d43	-0.06739838445917194
100	0x3f6d146d55cd1e78	0.003549779458271559
101	0xbf890bec93f3be3c	-0.012229774727955271
102	0xbf95e12ce741018e	-0.021366788496608495
103	0x3faa28abe8e6729e	0.05109154909152845
104	0xbfb045f5b852e273	-0.06356750249950398
105	0xbf6ca36b80e89475	-0.0034958934477509703
106	0xbfa8f26fc21b357b	-0.04872464413129315
107	0x3fa334e2b55cbfc3	0.03751285995383526
108	0x3f7d6ee16daf845b	0.0071858220862575884
109	0x3fb1ddac6c397cfe	0.06978871957970864
110	0xbf9f62b3896a7da2	-0.030649953138547688
111	0x3fa47168baa44dd1	0.039927742751526225
112	0x3f9dab10420c4c58	0.028972867995502888
113	0x3fa5519d818f6ffa	0.041638300004450415
114	0xbfb04f31dbf0ed81	-0.06370841617256497
115	0x3f8a4ed0a48fe1b5	0.012845640203509182
116	0xbfa80808d58da749	-0.046936298435709185
117	0x3fac9fe79fe0a3f1	0.0559074766791311
118	0xbfafcbe3564757c4	-0.0621024172611864
119	0xbfbb65b473ae91d9	-0.10702064346566632
120	0x3fb73fa7e3f9dce4	0.09081506076642004
121	0x3f758535cbdaf792	0.005253992215953478
122	0x3fb3ee54816442d4	0.07785537871337606
123	0x3f845ad8a388e00d	0.009938900461847333
124	0xbf4aa9cf63657ff3	-0.0008136999738717052
125	0x3f9c43065795151a	0.027599429221727957
126	0xbfaff78f76b30d0f	-0.06243561099975114
127	0xbfb5b2cdd9eb6fcf	-0.0847595841436821
128	0x3faa1486574fb4e0	0.05093784156620429
129	0xbf9921da02ebf522	-0.02454319613297174
130	0x3fa7ad66edfdd621	0.04624482779665252
131	0xbfb64d5768f69d26	-0.0871176368005889
132	0x3f866a2c5d510e1a	0.010944696996495518
133	0xbfad7bd3a8968eab	-0.05758534844360715
134	0x3f7f2e74ef64ed18	0.007612664010874036
135	0x3fb0403d5701ce01	0.06348021864123866
136	0xbfacaaa8a543a99f	-0.055989523099771114
137	0x3f5c3a43266d2d5e	0.001722875190995086
138	0xbf823540c5ae990e	-0.008890634568001345
139	0x3fafe23d69364798	0.062272948354020474
140	0x3f93c47a49e966af	0.019304190407956664
141	0xbfb723bd23c17532	-0.09038908122007142
142	0x3fb52caec26b7adc	0.0827130531938382
143	0x3fafe804be25f8a8	0.06231703587671805
144	0xbf73f5b0fe6fd9eb	-0.0048729814361565356
145	0x3fa7d5e4196d97a6	0.04655373392488053
146	0xbfb770019a293610	-0.09155282987304525
147	0xbfa07140f67086d9	-0.03211405762000447
148	0x3fa01fe59401b14e	0.031493353192532866
149	0xbfaaae85fe868d53	-0.052112757987993995
150	0xbfaca7d6dfa0a9e4	-0.05596801261738785
151	0x3fa37df0d0a6e85b	0.03807022616406704
152	0xbfb618d48fd25cd0	-0.08631638060829805
153	0xbfa26565c7373e04	-0.03592985207398772
154	0xbfb46a2026f3d7e8	-0.07974434805859654
155	0x3f90655c37dbe001	0.0160116585820731
156	0x3faed3a850e78e02	0.060208568454779524
157	0xbf9bbcae81dcaab9	-0.027086950946947328
158	0xbf80c11eccf4f032	-0.00818084776857839
159	0xbfb7a57e21eceb2a	-0.09236896827944166
160	0xbf9df98b61fa61e5	-0.029272249083620045
161	0xbfb688ba18e104a3	-0.08802378756901645
162	0xbfabda68b247a639	-0.05440070320385044
163	0xbfa3c0edf0fff312	-0.038581309956475476
164	0x3fa0e0a811c4ac8e	0.0329639932336586
165	0x3fb0f6ce07329738	0.06626594234202521
166	0x3fac1035582af2c0	0.05481116009966547
167	0xbfb3121acc83a713	-0.07449500554107784
168	0x3f803c605b6c1035	0.007927658834440002
169	0x3f920089e4b36c42	0.017580179771226286
170	0xbfafc1c1a5d3987c	-0.062025119297502734
171	0xbfaf02273359e346	-0.060563302057693266
172	0x3f771f55dd11beea	0.005645118145465958
173	0xbf82b18775987940	-0.009127672458870806
174	0x3f65ce7805092e62	0.0026619285711484844
175	0xbfb934830d73aba7	-0.09845751837171567
176	0xbfa40dc66dea9182	-0.03916759578467845
177	0x3fa90de36c3f9d94	0.04893408485787201
178	0xbfa070ca2f25aab3	-0.032110517745271315
179	0xbf9ef600534f8090	-0.030235295376656313
180	0x3faffac897140e6a	0.062460201685124186
181	0xbf98b50d8e442ff3	-0.024128162201165492
182	0xbfa79c4259548b7d	-0.04611403789956279
183	0xbf7b95c426fe23f3	-0.006734625072462019
184	0xbfa91f72ecdce42f	-0.04906806126968665
185	0x3f9afc720bad7fe2	0.026353628123047097
186	0xbfaa6a1cabaaa54f	-0.051590820269960085
187	0x3fa3ef5ef9bbe146	0.03893563078412625
188	0xbf991881b4c31b11	-0.024507548005909877
189	0x3fb0349f46e3aa47	0.06330295067497459
190	0x3fb135b6e9e3a1c2	0.06722586832223157
191	0xbfa5a4d441b8ef3a	-0.042273171446565574
192	0xbfa3ee734264caaa	-0.038928605894758064
193	0xbf824027727eda83	-0.008911426717401532
194	0xbfb43f2f44d62a87	-0.07908912115650867
195	0xbf76af5a9d7ba804	-0.005538324323177694
196	0xbfab21148b70b086	-0.05298675729895401
197	0xbf5bbffa672cb2d0	-0.0016937203733490731
198	0xbf70fa4816a37312	-0.004144937129436215
199	0x3f9d84d416090dd9	0.028827012867862798
200	0xbfb93546794a0811	-0.09846916638528593
201	0xbfa9a0995adb2152	-0.05005339845735314
202	0xbfa7a3c4fc6ccc30	-0.04617133694991826
203	0x3fa8b6aaf839ab71	0.04826864509671836
204	0x3fa1cb79f52a9199	0.03475552671196453
205	0x3fa6e6482db31994	0.04472566182953411
206	0x3fb5e4f7c73b837d	0.08552502264093494
207	0xbfb9581fc73ae071	-0.09900091756833419
208	0xbf8e39be9839157d	-0.01475857641265565
209	0x3fa836b7817277c8	0.047292456199314936
210	0xbfa4504b0591f89c	-0.03967508738513567
211	0x3fa886535903fbd5	0.04789982282272091
212	0x3f7d92620caab632	0.007219679837971381
213	0x3fb1c0e05138137b	0.06934930785071274
214	0xbfa83ffe9d728749	-0.047363239974642264
215	0xbf91efce8ac97095	-0.017516352864149615
216	0xbfb6d8de0e563411	-0.08924663400667067
217	0xbfaf7c35dc175783	-0.06149452506694699
218	0x3facb2f29ae0a46d	0.05605276241869537
219	0xbf8dbc928877564f	-0.014519829549423905
220	0x3f8574ee34495014	0.010476933451322203
221	0x3facccb2e5450eb1	0.05624922798827237
222	0xbf8f3faf84473207	-0.015258189415271252
223	0x3fb399c2a476b92e	0.07656494631985275
224	0x3fb21b6c00873a53	0.07073092472931224
225	0x3f8d5fc8a82efc61	0.014342849381021762
226	0x3fb78fc9c1c14642	0.09203778248163366
227	0xbfbb78a6c9269351	-0.10730974589257626
228	0xbfb1b10b2b2538e6	-0.06910772136072615
229	0xbfb2217fdd59f050	-0.07082366136632001
230	0x3fb2d7d4b38713b4	0.07360581763266688
231	0x3f88c7f6f191fd62	0.012100152251376787
232	0x3fb278db16f3a976	0.07215661344858923
233	0xbfb2adfbafb62ad6	-0.07296727218469398
234	0xbfb72721de9c4263	-0.090440861557235
235	0xbf9270441ca40f14	-0.018006386039828362
236	0xbfb189108a985762	-0.06849769004506137
237	0x3fb1bad65fa3cf46	0.0692571624275021
238	0x3f766c0ffe211694	0.005474150153593666
239	0x3fb0568ef9c9eb70	0.06382077787740825
240	0x3f91fbe0511289f6	0.01756239409281509
241	0x3f6f5c13bc518b61	0.003828085466510187
242	0x3f94d925e5ef46e1	0.020359604033564408
243	0xbf9c6c6816c20a03	-0.027757288350139585
244	0x3fb3922008db51f4	0.07644844261387346
245	0xbf828dc1bc6a5769	-0.009059442102891517
246	0xbfa1aa55036c4f94	-0.03450265566621549
247	0x3f928ff638e95a85	0.018127295707325537
248	0x3f6bce34e624af04	0.003394225424150467
249	0x3fb370f37d137ca9	0.07594224742523416
250	0x3fb752692217e57c	0.09110123712880197
251	0xbfa64a98d0f8a73f	-0.0435378794757768
252	0xbfb300358281d7fc	-0.07422193943224892
253	0xbfa6f045e1c20179	-0.044801887329415764
254	0xbfa0aa51858b84ce	-0.0325494266051095
255	0x3f398921c3aa7c5f	0.00038964342426512326
