best_regression_Medium_model.npz (npz, 80370 bytes, 6 tensors)

param_0 f8 [128, 10]
000000 41 e6 33 5c cc d2 a1 3f f5 3a 6c c3 0c 2a c2 bf
       0.034811388259140326 -0.1419082597935454
000010 9e d8 76 55 db 3d c7 3f c8 b8 6d ca b5 72 b7 bf
       0.18157521889742595 -0.09159408752541076
000020 d1 d5 dd cb 11 2b 81 3f c3 fb cc b5 5c 28 d3 bf
       0.008382929834378413 -0.2993385100743888
000030 54 37 53 b8 1c 5b c9 3f 15 89 46 c5 39 a1 b6 3f
       0.19809302330252854 0.08839760843560314
000040 01 7b 63 c1 0d 6b c8 bf d6 7e 29 55 f3 cc c5 bf
       -0.19076702063372156 -0.17031709345155005
000050 3b b7 c4 c8 f3 70 b9 bf e1 38 fa 64 51 cd b3 3f
       -0.09937976504872108 0.07735165324467942
000060 a3 e5 e9 75 77 1b a0 bf d9 d9 36 4a b0 d4 be bf
       -0.03145955385566459 -0.12043287097808476
000070 1a da c5 3f 7b f8 c2 3f 03 05 47 51 e4 48 d1 3f
       0.14820805181416646 0.2700739663815314
000080 9e 59 55 86 ce 32 d4 bf ed d1 a0 7e 3d 5d a5 bf
       -0.31560099714752166 -0.04172699137453493
000090 05 43 c5 8d 78 88 70 3f f5 d6 e3 74 90 d8 ab 3f
       0.0040363988049001475 0.05438662936096065
0000a0 77 f0 8e 56 6a 3b d1 bf c2 89 74 9b 54 de c3 bf
       -0.2692514272018864 -0.1552224883135534
0000b0 42 03 7c 49 45 34 d3 bf d0 11 02 f1 00 e9 b6 3f
       -0.3000653474446616 0.08949285396562989
0000c0 76 06 e6 8f a4 f8 b5 3f 08 63 34 f5 e4 fc ca bf
       0.08582523835323194 -0.21084272358782408
0000d0 9b 6e af 17 ee 8a bd bf 69 6d 46 ae ab 5e b6 bf
       -0.11540115431074087 -0.08738205914271692
0000e0 49 46 14 dd 5e c2 c7 3f ff f7 1c f8 ae e3 cc bf
       0.18561921877749146 -0.2256983481874499
0000f0 08 c1 42 5b c2 56 a8 3f ed 41 ac 6a b7 9d ca 3f
       0.04753692020438122 0.20793812473904386
000100 5c 4e 24 8b 72 f9 cc 3f 59 47 fc a5 9f 09 b2 3f
       0.22636253160509312 0.07045934488658413
000110 3b 1a c4 11 f1 7f bc bf 39 86 1b 26 31 e4 ce 3f
       -0.11132723506680346 0.24133886681288333
000120 fc e8 84 11 86 d2 b9 3f 29 6a 4a 6d bb 19 c0 3f
       0.10086858680452687 0.12578528248271084
000130 cd 2b f6 7a d1 f0 d2 bf 91 a8 81 22 bc 9d d0 bf
       -0.29594838149995156 -0.25962737436078337
000140 36 48 fc e4 e3 37 bc 3f 5f 8e 52 25 77 ed ca 3f
       0.11022781696763748 0.2103718693007179
000150 5f 04 4c 83 ad 49 c2 3f 6f 87 93 04 cf 28 d0 3f
       0.14287346755012018 0.25249076315787183
000160 6b 45 70 32 bf 64 8f bf 1e b0 32 73 39 a1 c5 bf
       -0.015328878142130539 -0.1689826786508783
000170 81 dc 32 47 7b 64 c5 3f d5 1e 7a 38 1d c7 bc 3f
       0.1671289537095824 0.11241324070771992
000180 c4 a0 23 40 fc c1 c4 3f 04 0f 19 b0 51 32 cf 3f
       0.16216996318622112 0.2437231168606716
000190 72 6d ce 69 30 d5 a1 bf 63 d7 6b b5 54 a3 cc bf
       -0.03482962886411202 -0.22373446329555255
0001a0 d0 07 31 59 66 6c d4 3f 70 be ec e1 18 56 d1 bf
       0.3191161986361495 -0.270879955892247
0001b0 93 cd 62 8d 60 d6 bf 3f b4 9d 3d 28 30 ef c7 3f
       0.12436488582425502 0.18698694195630383
0001c0 c9 5f d8 08 14 d6 b7 bf ef 1c dc f0 49 99 c5 3f
       -0.09311032501170681 0.16874050389035442
0001d0 1c 09 61 2e ae 4e bb bf 78 45 ad a8 a6 d1 cb 3f
       -0.10666931755352888 0.21733554111646547
0001e0 6f c9 e1 15 54 ff d2 bf 15 59 90 46 58 14 b5 3f
       -0.2968340123835764 0.08234168741941901
0001f0 9c c4 0b 79 87 48 c3 3f 88 0f 4d 2f 81 d5 7c 3f
       0.150650915245511 0.0070395513801634405
000200 ce b6 09 55 1d 85 be 3f 3d 27 4a 66 1c 7c cb 3f
       0.1192186672794506 0.21472506517994275
000210 ca c4 d4 96 f2 22 c9 3f 7a 78 66 fa b2 a8 d0 3f
       0.1963790165405384 0.26029657796050965
000220 6d d4 40 41 cf 3d 83 bf fe ae 18 8e 1c cb 77 3f
       -0.009395236185904399 0.005808936637133886
000230 71 92 cf 31 15 3d c6 bf 18 45 8e 33 56 70 d0 3f
       -0.17373909885567998 0.2568564895128289
000240 98 13 12 b2 00 3b ce bf ae ba 6e c3 03 f4 bc bf
       -0.23617562002996517 -0.11309836884786748
000250 1c 31 69 e4 1b aa b9 bf 8a f8 0a 5a c9 8f bb bf
       -0.1002519066470921 -0.10766275833427322
000260 aa 68 71 a5 21 13 d4 3f 0b 7b b2 8a ef 81 b4 bf
       0.31366768986266413 -0.08010766159211984
000270 eb 05 46 d1 38 45 d3 3f 98 f7 2f 99 fb 80 8e bf
       0.3010999721228404 -0.014894452679069123
000280 3a 1b 7d 77 92 b6 cc 3f 73 77 eb e2 90 5a 90 3f
       0.22432165941628474 0.015970481729588436
000290 6b 62 6e 55 ff 27 bc bf f4 0f 1f bb fe a4 a2 bf
       -0.109985311848854 -0.03641506227680216
0002a0 4e 15 ad 45 4a e1 9b bf b6 8c 2c 81 2c b0 c3 bf
       -0.02722660112637714 -0.15381389911008164
0002b0 04 0b 52 b9 a8 1e c2 bf bb 36 65 6f b5 e4 c8 bf
       -0.14156064080096808 -0.1944796365664184
0002c0 5e 42 1f 85 cb 84 bb bf d1 55 7c 80 84 a0 b4 3f
       -0.10749504089404513 0.08057430397851496
0002d0 ff 67 5d 58 36 7a b6 bf 85 08 d2 64 5c 2b c1 3f
       -0.08780231149049199 0.1341357700621907
0002e0 f3 40 25 41 49 d8 d2 3f 83 a6 46 a5 3c 36 af bf
       0.29445105897776996 -0.06096066968468696
0002f0 07 22 cb e5 f2 bd a1 bf dd 7e 13 43 3b 3c ce bf
       -0.03465231947990693 -0.23621311927035196
000300 68 07 51 d2 05 b4 ad bf 33 2a 0a a1 6c 2a c1 3f
       -0.058014089511302214 0.13410718787447848
000310 df 88 36 5e d6 c9 c7 bf b3 ad a3 fa 41 66 c9 bf
       -0.18584708786244783 -0.1984331582856221
000320 fa 00 53 96 99 48 b3 bf bd de d9 c2 b1 b2 cc 3f
       -0.07532653732323871 0.22420331968509358
000330 36 bf 0b 45 3d 15 b3 3f b1 f1 e5 87 ff c6 d1 3f
       0.07454283652964197 0.27777088424025026
000340 e0 57 c3 7d df 59 cf 3f d6 b5 5b 47 d3 71 c8 bf
       0.24493020668768306 -0.19097367271699167
000350 21 43 60 b5 33 ca d5 bf 89 7e b0 04 41 59 a5 bf
       -0.3404664298296201 -0.04169657881015804
000360 a5 c1 b3 14 ec af 65 bf f6 cb e2 ef 40 31 8c 3f
       -0.0026473628000689025 0.013765818901765297
000370 28 4b 5f 62 ff 5b ce bf 2b df 2e 9e d4 7b ca bf
       -0.23718254378635462 -0.20690400813850238
000380 9d 9a 2a a2 92 f9 d1 bf f7 9e 54 77 53 23 d0 3f
       -0.2808577140480482 0.25215613034605106
000390 15 10 69 d7 ac cb d0 3f 05 98 b9 bf 8e f7 d1 bf
       0.2624313453309253 -0.2807347175897806
0003a0 e5 d3 c8 c1 77 1f c2 bf 89 4d 3d ad 1b 99 d0 bf
       -0.14158532106526348 -0.2593449775497097
0003b0 e0 67 79 0d e9 72 cd 3f 1d a7 8e e3 45 8c d2 3f
       0.23006928594514786 0.28981158468615026
0003c0 b1 7b 7c 46 c5 6f c4 bf 09 43 f9 72 83 8d c0 bf
       -0.15966096822464018 -0.12931864847134758
0003d0 a5 2a d6 18 11 15 89 bf 71 8b b4 e6 ee c8 93 3f
       -0.012247212953999062 0.019321186858302256
0003e0 74 3e 36 8d 39 69 bc 3f 0a 81 14 fb e1 1a a7 bf
       0.11098060319477004 -0.045126974009919676
0003f0 82 2e f3 4f 5c 40 d5 3f d5 a4 38 6a 83 f2 c9 bf
       0.3320532589684505 -0.20271341978631222
000400 ae 5c 8b 1f 5f bc ca 3f f6 5a 86 64 d4 d7 b1 bf
       0.2088736442590053 -0.0696995492383897
000410 0e e3 c2 86 20 38 bc bf 5d 55 8f f4 2d 58 bb 3f
       -0.1102314309126877 0.10681426258755296
000420 28 9a 67 6d 58 7c d3 3f b0 fb 49 25 70 53 b5 3f
       0.3044644421010241 0.08330441389442345
000430 57 e8 af 37 9c 00 c9 3f 44 63 55 be 0e 6c c1 3f
       0.19533112258051474 0.13611015599851772
000440 5f b3 d5 dc 90 69 b5 bf a6 c4 5e 4c fb 79 c1 3f
       -0.08364205733751139 0.13653508404744236
000450 9c e9 0d 0d 68 8c c9 3f d2 02 f6 78 c0 f0 9f 3f
       0.19959736478251677 0.031191832907554957
000460 b1 b2 45 00 35 1b a1 3f bc 66 59 bb cd 84 c5 3f
       0.033410698207125285 0.16811534545813867
000470 63 82 34 3b 44 9e c6 3f b9 37 9c 9a 1d 80 ba bf
       0.1767049111449693 -0.10351738953269675
000480 d8 2b 01 3b a2 7e c4 3f fb 45 4d 91 bd 8e ca 3f
       0.1601145542248037 0.20748109431092118
000490 0a 94 64 a3 ca 83 c8 bf 0c fa 1b 76 32 81 c2 3f
       -0.1915219590966049 0.14456778304152385
0004a0 8c da d9 9c 0e 79 cb bf 2b bd 2c 4a 4a c8 cf bf
       -0.2146318689226131 -0.24829987165274167
0004b0 fe 3b be 68 b2 ff b1 3f a1 27 f0 73 96 e1 d1 3f
       0.07030787522511159 0.2793937809188894
0004c0 f9 85 12 84 5c ab d6 bf 2f fe 2f ef 07 6f ca 3f
       -0.3542090692299947 0.2065133970172481
0004d0 40 0e 20 10 06 6c a1 3f 65 f9 ab 0b 25 23 ce 3f
       0.034027280300531704 0.23544753141318178
0004e0 ba dc 6b ce 46 d4 c4 3f f3 97 cd bc c3 4d cc 3f
       0.16272816733519396 0.2211231872453819
0004f0 d7 57 fb 08 e1 4b bf 3f 07 83 ea a9 af 3a c9 3f
       0.12225157231600235 0.19710346028025347
000500 5b 57 25 89 a1 fc c4 bf 3c 66 98 0d 49 3c c2 bf
       -0.16395968624663734 -0.14246476329644675
000510 b0 68 66 0d 1c 4f c2 bf c6 b7 18 76 4d 09 c8 3f
       -0.14303923277185993 0.18778389231141385
000520 ab fa 1a 30 39 51 c8 bf 5a 88 25 90 81 1a cf bf
       -0.189978741158446 -0.24299640215309887
000530 0c 47 8f 61 64 84 d3 3f 4e 19 35 f8 4f f5 bb 3f
       0.3049555733424405 0.1092119198775425
000540 0e e4 fa 8f 85 35 cb 3f 91 08 55 c6 c7 86 c8 bf
       0.21257085352206712 -0.19161317047298046
000550 64 b5 99 df 89 57 aa bf a1 56 f2 03 1e 7c bc bf
       -0.05144911627290119 -0.11126887890199068
000560 9b ac 1d 8f 32 7d d4 bf e7 10 59 3a f0 64 c5 bf
       -0.3201414487472875 -0.167142895212357
000570 07 c1 33 17 58 3d a2 bf fe a1 c6 f7 e8 74 cb bf
       -0.03562426837186377 -0.21450531099732467
000580 33 2a 9a 58 f5 51 41 3f 3f 46 dc 27 b1 81 b3 bf
       0.0005285690287604783 -0.07619769309192125
000590 b4 94 62 2a d1 d9 d3 bf 2f 04 d1 98 22 1a c0 3f
       -0.3101694978634655 0.1257975813078089
0005a0 1d c0 d0 cf 85 23 c5 3f 42 f7 d7 2a 93 d6 c8 3f
       0.16514656684148657 0.19404830543492763
0005b0 66 72 fa 35 7b fb 60 bf fc d9 f2 13 f1 b4 d3 3f
       -0.0020730406248062215 0.307918805581181
0005c0 81 27 56 7c c0 11 d0 3f 1c c2 fb bd 0c be a4 3f
       0.2510834898208643 0.04051246470578837
0005d0 47 49 92 3a 33 f2 9c bf a5 56 0a 81 66 b6 d3 bf
       -0.02826767010680811 -0.30800783731079157
0005e0 7d 10 e4 6d 97 24 c1 3f 99 03 39 f1 7f f1 a9 3f
       0.13392918458714922 0.05067062205899404
0005f0 1f da 52 9f 5e bc d1 3f af 24 7f 60 4f c7 a7 3f
       0.27712216910313886 0.04644249012887635
000600 02 a8 e5 89 6b 3e d4 3f 4e 92 1a 68 02 c6 cf 3f
       0.31630981890214127 0.24823026736443626
000610 cf 40 d0 f8 5f 59 d0 3f 50 9c ee ae ad 0e b8 bf
       0.25545501039688373 -0.09397397537996821
000620 12 3a 4c f3 e9 90 cc bf 00 fc 22 0a ea 39 c6 3f
       -0.22317242030881396 0.17364240164712896
000630 22 e0 36 a5 05 ab c7 3f dc b3 e1 06 d4 47 c8 bf
       0.18490667883975315 -0.18969202362077808
000640 d2 1e 04 67 d1 48 c5 3f fe 0b 04 3a a1 82 96 3f
       0.16628472833712366 0.02198268810844794
000650 ac 01 79 e0 c8 3f ca bf 05 56 5f d1 66 e1 a4 3f
       -0.2050715538080231 0.040782177980570856
000660 fe 4b 2d 60 60 28 cc 3f f0 16 d1 e8 67 c9 a9 bf
       0.21998219200267494 -0.05036473004342479
000670 2a 0b d2 80 a0 b9 cd 3f 34 0b eb 69 f2 f5 d2 bf
       0.232227385426165 -0.29626140922134714
000680 6b 78 a3 7d 5c f9 c6 3f b6 45 40 d1 fd 93 d1 3f
       0.17948490271277548 0.2746576827495021
000690 23 da 88 bc 91 ce 93 3f a1 03 e3 59 90 49 b6 bf
       0.019342686779248674 -0.08705999559880563
0006a0 00 7b 2f 97 de b2 ae 3f ec 86 01 85 79 fe d2 3f
       0.05995841594243778 0.29678190220702905
0006b0 8c 25 b5 80 0e 25 c8 bf ea 35 2d 87 50 30 a1 bf
       -0.18863087925482735 -0.033571735859918864
0006c0 59 b2 33 13 f9 5b ce bf 34 3b e2 90 01 2b 9b 3f
       -0.2371817916640733 0.026531242816925274
0006d0 fd 4b 75 15 0d 33 38 3f dc a4 90 93 a4 05 cf 3f
       0.0003692538206980232 0.24235970692942643
0006e0 e9 cc 29 04 68 26 a2 bf f6 57 5e b0 19 e0 a7 3f
       -0.03544926691838574 0.046631624965058835
0006f0 1d dc 8e 48 24 85 c9 3f d7 cf e0 fe 69 f6 c3 bf
       0.199375663212522 -0.15595745988105023
000700 cc 0b e8 89 14 a7 bd 3f e9 99 fb 6c 99 b2 c7 3f
       0.11583069197517587 0.18513791867663024
000710 5e d2 e0 55 e7 ca c3 bf 46 40 5d 75 0d 0f c6 bf
       -0.15462962811729403 -0.17233436804463248
000720 43 ff cb 3a be 9a a3 bf e7 74 54 e7 07 3e a3 bf
       -0.038289971043921976 -0.037582633007539994
000730 da 4c db 8f 50 dc c1 bf cd b5 d6 74 5b 66 d2 3f
       -0.1395359709191329 0.2874973908427279
000740 56 ff ea 05 fe d2 9c bf 9f 85 38 04 a1 27 d1 3f
       -0.028148621665195016 0.26804376041590133
000750 6b 95 1e bd de 48 c9 bf 72 ad 6f eb 1e ae cd 3f
       -0.19753631815289494 0.23187624450597927
000760 fd d6 61 ca 58 d3 c6 3f 61 f6 ee 29 3e 6a c7 3f
       0.17832479364340506 0.18292977378398503
000770 cd 40 b1 8a c9 c4 b2 bf bc 0d 12 e7 ea f0 8e bf
       -0.07331523548168946 -0.015107951332771978
000780 a4 7e aa 6c c4 a3 9f 3f 62 52 09 59 d5 4b c1 3f
       0.030898160107084252 0.13512675139886016
000790 4d 59 ad e0 e9 db d1 3f d5 db 3a b9 5e 6b d1 bf
       0.27904745999457675 -0.2721783455739886
0007a0 67 bb 0c 15 2f dd cb 3f 3c 5f fb a2 27 c0 cc 3f
       0.21768749740428037 0.22461410005666405
0007b0 86 a8 8a 91 07 3e b9 3f 43 b0 57 51 93 fe c6 bf
       0.09860274604094074 -0.17964402648738273
0007c0 c5 e0 ed 9b 00 09 cd 3f 4d 16 f5 74 24 0d a7 3f
       0.2268372308133221 0.045022143628142254
0007d0 59 e3 d8 01 99 6f c4 3f 0a 20 86 d0 4b c8 ce 3f
       0.15965569105335467 0.2404875534232363
0007e0 ac de 06 21 cd e9 d4 bf f9 2a 64 8a 7f 59 ae 3f
       -0.326770097973603 0.05927656711908997
0007f0 fc 57 67 0b 6c 6c aa 3f c0 14 86 70 8b 2e d3 3f
       0.05160844458775668 0.2997158621659075

param_1 f8 [128]
000000 7e ae 8f 0b 80 28 ce 3f 6f 5a 39 72 ac f5 d1 bf
       0.235610967297692 -0.2806197276562789
000010 1e 37 55 93 e2 bb b8 3f d8 52 2d c5 8b e2 b3 bf
       0.09661689850801422 -0.07767556728260716
000020 11 4f 6f e2 0e 04 c8 bf 4b 9b 7e 58 d0 1e d0 3f
       -0.18762384468447427 0.25188072816893187
000030 7a 74 c0 0b 46 ef c3 3f cc 7d f8 1c 84 d5 b9 bf
       0.1557395512944913 -0.10091424662868248
000040 d8 71 63 d4 46 79 c1 bf d1 30 46 b5 30 1b c3 3f
       -0.13651357050447532 0.14926728106764256
000050 1c 84 ac c5 31 3f cb 3f 8c b5 a6 b3 59 79 c1 3f
       0.21286604072614146 0.13651582023650766
000060 e3 53 b0 b2 5b aa b6 3f cf ae b4 05 92 06 c6 bf
       0.08853695976752322 -0.17207551268199103
000070 8d e8 c6 d9 9d 8f cc 3f 44 13 4d 10 12 36 c4 3f
       0.2231328309406461 0.15790010257674159
000080 26 75 1c 39 f6 5f 86 3f 48 d4 2e d5 be 04 7e 3f
       0.010925220125097623 0.00732874435464221
000090 b3 be 19 49 40 66 a6 3f c6 41 bd a6 4c 93 ca 3f
       0.04374886410084624 0.2076202215344109
0000a0 e0 59 11 07 a9 9c c3 3f 64 c8 e4 dc ed d6 cc 3f
       0.1532183918486245 0.2253091171820102
0000b0 1e 63 71 8d c5 dd 72 3f 25 37 ad 9a 87 2e b4 3f
       0.00460602921437994 0.0788349869373773
0000c0 c9 0c 72 e6 40 b4 cc 3f d9 27 db ea 7a ab c5 bf
       0.22425090076658297 -0.16929565875608324
0000d0 c9 e5 e5 8d 87 20 a2 bf 1d fc e2 f3 dd 88 b3 3f
       -0.03540443045762804 0.07630717472328326
0000e0 2b 41 77 f2 ce cd d0 3f c1 2c e2 06 fb 98 d3 bf
       0.26256154707245355 -0.30621219322410914
0000f0 19 da 79 8e b8 44 c7 bf a8 3c b1 fe 53 7f c5 bf
       -0.18178469616732754 -0.1679482453932668
000100 58 a1 ef a3 a9 12 bc bf 0b cb a0 f6 51 aa c1 bf
       -0.1096597695574294 -0.1380102590788613
000110 91 a8 4c 04 41 30 ad 3f f4 82 f9 0d b6 37 cf 3f
       0.05700877358897672 0.24388766939502882
000120 cd f3 2e 60 8a 2d b6 3f b7 1a 7c 8f ae ec c4 bf
       0.0866323933432362 -0.16347295766919043
000130 10 48 52 34 86 72 cd 3f 80 4d 9d 25 1d 61 b5 3f
       0.2300575023151059 0.0835130898315608
000140 49 a0 f7 64 50 c0 c6 bf bf 94 6d aa ba 65 b6 bf
       -0.17774395875972207 -0.08748976384011352
000150 0c 36 bc 87 51 79 c7 3f 53 45 c5 a2 ae 57 c3 3f
       0.18338984611220643 0.15111334750921887
000160 f0 a1 76 02 77 cc a8 3f b5 6c 21 24 f2 c1 cc bf
       0.048434943247517626 -0.2246687580508017
000170 ed ff c8 91 75 8d c8 3f 55 2d 06 07 18 29 bf bf
       0.19181699388900544 -0.12172079249846963
000180 bd 42 fe 8d ad fc c5 3f cf 76 b3 8c 6b e4 b7 3f
       0.1717736190153313 0.09332916436275272
000190 24 1b 09 11 68 17 c3 bf 55 76 cc 7d f2 48 c7 bf
       -0.14915180999579392 -0.18191367285264684
0001a0 d5 e0 19 71 22 e1 cd bf b5 3b 6a fe fb e3 c4 bf
       -0.23343306086076746 -0.16320753023725634
0001b0 d2 a2 f0 45 41 b3 cb bf 52 1e dc 6b 9c f3 b2 3f
       -0.216407927656539 0.07402970917984789
0001c0 35 c7 da 58 d8 fc af 3f 08 03 0f 6a 6c e7 ab 3f
       0.06247593006754785 0.05449999613438733
0001d0 0d 15 c6 7f 22 f9 b6 3f 6c f1 41 a5 b0 7b c9 3f
       0.08973899478413135 0.19908721989839806
0001e0 0e 3d 23 bb 4b bd d0 3f 8e aa 84 6d c7 d3 c5 bf
       0.26155370021020097 -0.1705254826313944
0001f0 32 2f 62 ae 42 6c ac 3f 74 0b db 0b 58 11 d1 bf
       0.05551346186356766 -0.2666835895326394
000200 af cc f1 7c 48 c0 ce bf af 69 c8 3a 26 fd b8 3f
       -0.2402430162506781 0.0976127522957657
000210 63 80 42 6e bc 61 81 bf d9 7d e8 9d c0 e9 c4 3f
       -0.00848719798551673 0.1633835574184406
000220 c2 6e f3 2b 21 11 a8 bf c7 38 ad 6e c3 25 ce bf
       -0.047005688300229234 -0.2355274477399176
000230 3c aa b2 77 8d 1e ce 3f 3a c5 74 3e 2c e2 d0 bf
       0.23530739159225955 -0.2638044938967884
000240 48 a1 10 af fd 2d c9 bf 4d a9 ff bc ff 0d c2 bf
       -0.19671603248685643 -0.14105221489382772
000250 d6 6b 11 33 2c 0c d4 3f d5 25 59 cd 16 ec aa bf
       0.31324295985330985 -0.05258246666614822
000260 7d 4b e8 b9 3c b4 51 3f f0 ef 5d f3 46 d5 c5 3f
       0.0010805695561699462 0.17057120211745724
000270 e4 b6 56 5e 3c 16 b6 3f c1 18 11 b1 b4 a3 cb 3f
       0.08627679160300833 0.2159334053596407
000280 93 08 0e 89 83 92 81 bf 5e 5e fe d5 c6 1c d3 3f
       -0.008580234165269018 0.29863139055075816
000290 32 e2 fb b1 3a 07 c8 3f 01 e5 8b c5 88 f0 af bf
       0.18772062006589035 -0.0623820058007798
0002a0 e3 47 0d 0e 1e 39 b3 bf 1a a5 ea e8 73 62 d1 3f
       -0.0750902923876136 0.27163408036956727
0002b0 3d 81 22 5f c5 db bd 3f 84 2b 52 3d 41 a9 b3 3f
       0.11663468907000137 0.07680137393087533
0002c0 60 35 5f 37 5c df c4 3f 30 58 41 68 f4 b2 a3 3f
       0.16306641296106772 0.0384746911301338
0002d0 e5 79 31 f1 87 97 cb bf e8 df 8d 5c 44 45 bd bf
       -0.2155618598653312 -0.11433818111061067
0002e0 6c 6d 1d b6 77 c3 a2 3f 70 e0 e2 68 d1 80 d3 bf
       0.036647549610928504 -0.30473742716595265
0002f0 4a 19 21 ad 73 49 a4 bf 40 a1 c4 1a 56 b5 c4 3f
       -0.039622893222758096 0.1617839461043875
000300 07 0f b5 24 84 2e cb bf 4e e0 62 29 1b a0 d1 bf
       -0.2123570613131209 -0.2753971008455708
000310 86 c0 60 3d f8 33 cb 3f 91 8f 5d 9d d6 fc b2 3f
       0.21252348896951306 0.07417050687723604
000320 4e 81 6c e2 ac 2e ca bf df 32 5d 0a f5 cb c8 3f
       -0.2045494180283733 0.1937242794614553
000330 c3 d8 c8 01 3f 9a b9 3f a8 4d 00 66 86 db ba bf
       0.10000985902374553 -0.10491218557608895
000340 ff 63 09 ee 7d 0b b4 bf 35 e8 85 59 7a db cb bf
       -0.07830035268251832 -0.2176354348301303
000350 3f 5e e2 3f f0 23 cb 3f 80 26 67 ac 02 55 77 3f
       0.21203425521228955 0.005696306651267968
000360 a2 e9 e8 f2 b8 76 a2 3f fc 0c ff 43 9a 0b cf 3f
       0.03606203046043112 0.24254158325320663
000370 7b 6c 51 56 09 99 d3 bf 2a ef f7 da 9b 87 d1 bf
       -0.3062156050634212 -0.2739019049038115
000380 39 d1 67 28 8a 65 cb bf 5e 05 f0 c0 d1 05 d3 bf
       -0.21403624508787703 -0.29723018495140774
000390 28 87 9f 28 5a 9b b9 3f a5 ca 02 07 1e ad b5 3f
       0.10002673618103286 0.0846728102795092
0003a0 67 85 f0 cf 6d 69 c7 bf b4 02 f9 98 ce 61 cc bf
       -0.18290493634507785 -0.2217348334252357
0003b0 d8 77 03 04 f0 ae cc bf 5f 0e a6 60 8e 58 d2 3f
       -0.22408867069219585 0.2866550391993083
0003c0 a6 b5 d6 2f 7e 54 bf 3f 7d 08 01 c9 cf a9 ab 3f
       0.12238300960480916 0.054029935156465016
0003d0 e0 a6 38 f2 ab bd bc bf 5d 7b 3e 3d 88 ae a5 bf
       -0.11226915992360942 -0.04234719989403033
0003e0 ee 8d ad 70 a3 9e d0 bf 4a fd a1 e0 ec 29 d4 3f
       -0.2596825218554092 0.3150589173964887
0003f0 b4 c1 72 e9 77 a6 c4 3f e8 2a 33 63 10 aa b3 3f
       0.16133021258202762 0.07681372091171179

param_2 f8 [64, 128]
000000 07 84 65 71 23 e1 86 bf 95 b1 07 a0 eb 65 86 bf
       -0.011171605012977549 -0.010936585255841883
000010 be 92 8b 7d c4 30 85 bf 87 29 ee 15 d4 30 b0 bf
       -0.010346922952018441 -0.06324506316574317
000020 3e 5b 8e e5 6c c4 82 bf 84 7d 3c 29 10 91 ba bf
       -0.009163714175696943 -0.1037759876894509
000030 63 c7 94 de 23 75 b7 bf 3c ca 2e 51 b7 81 a4 3f
       -0.09163116630659611 0.040052155170446885
000040 6a 9a c0 02 cf 13 ae 3f e5 0d 58 6c a0 9f a7 3f
       0.05874487789724443 0.04613972971494799
000050 dd 20 6d e0 e8 56 a7 bf 4a c4 36 d3 3e 47 a5 bf
       -0.04558494319513937 -0.04155918434424473
000060 1e 3f 46 e3 be 28 93 3f 24 dc 1d 0f 5e 7e a3 3f
       0.018710119840363075 0.03807348188905049
000070 e1 dc 10 18 a3 9a a7 3f b6 8c 05 31 2f 62 b8 3f
       0.046101662337997736 0.09524817416017836
000080 c9 48 a1 da 06 d8 ab 3f cf a6 5b e6 c8 ba 9a bf
       0.0543825284845681 -0.02610315233224619
000090 ed 70 9e 34 0e 31 a1 bf 8c 54 3e 5b a2 e4 b7 bf
       -0.03357738869019209 -0.09333243110298123
0000a0 94 3f ba c1 22 99 9b 3f 03 ba a6 66 99 e9 bb bf
       0.026951354097547744 -0.10903319126257575
0000b0 b4 ad 6b e1 e1 2c 93 3f 5d a3 ae ea 30 c4 a3 3f
       0.018725900062163084 0.03860619416020115
0000c0 02 7c b8 5a 87 bd ba bf eb 2d 5f 2c ad dc ba 3f
       -0.1044544788824027 0.1049297555284096
0000d0 cd 26 e6 90 87 31 93 bf 10 e9 91 44 21 a0 a4 3f
       -0.018743627757010373 0.040284194584233046
0000e0 56 6d c4 b9 43 8f a7 3f 83 71 47 6b 50 a4 9f bf
       0.046014896799727964 -0.030900246188922075
0000f0 d6 3d d2 1f 2c 79 93 bf 30 70 d6 83 59 a2 b3 bf
       -0.019016923372474036 -0.07669600933735476
000100 25 67 d1 a8 35 74 a9 3f 28 18 82 37 02 ae 9c bf
       0.04971473394171103 -0.02800754035754252
000110 be a5 42 9e b5 b0 b6 3f bb a4 11 39 3b 87 b0 bf
       0.08863387216356153 -0.06456346648487259
000120 77 3f b4 92 50 a3 b0 3f f6 fd 1e d3 2b 0b ba 3f
       0.06499198514597802 0.10173295883486574
000130 ee 6e 32 ac 37 79 9e 3f 87 ca 5a 56 eb f1 a5 bf
       0.029759282956191173 -0.04286132268079706
000140 39 2a d7 b8 f8 f4 94 3f a7 f1 df 87 31 49 ab bf
       0.020465742379921024 -0.053292796932484614
000150 cc 40 85 4f be 92 b2 bf fb 30 09 99 b2 46 ae bf
       -0.07255162660044617 -0.05913313024629648
000160 18 00 e7 9c 44 04 9a bf 54 7e 00 6e e5 5d 9f 3f
       -0.025406906200942186 0.03063162311457142
000170 32 da 9d 2e d9 4c a8 bf f2 05 01 f7 ad 44 b1 3f
       -0.04746130651522086 0.06745421676989574
000180 26 b6 6b 14 3d 20 b1 bf 1f 4e c2 1b fa f6 aa bf
       -0.06689817188790723 -0.05266553486685787
000190 63 b1 b3 22 5f 53 b2 bf 52 fd 25 fa f6 0a ac bf
       -0.0715846500131128 -0.05477115443772597
0001a0 37 2e a3 96 db 4f 4d 3f 05 fe 1d 87 9d 31 70 bf
       0.00089452955332931 -0.003953566878294183
0001b0 8e b8 44 97 d5 73 b3 3f 8a db f1 b8 2c 66 aa bf
       0.07598624175145316 -0.051560781074775866
0001c0 a2 d0 c2 33 bd 99 b7 bf d2 63 cb 07 c3 48 9a bf
       -0.09218962205597106 -0.02566818938325694
0001d0 4c 60 18 c1 f5 99 a6 3f 3a b1 8f 17 fd 98 a8 3f
       0.04414337141150834 0.04804221069921018
0001e0 f9 e8 a2 28 77 c7 9e 3f b8 f5 a0 1a af 3e aa bf
       0.030057775359389336 -0.051259490967349775
0001f0 02 02 7e e1 10 84 ad bf 28 6d 9e 8b 2f de 9f bf
       -0.05764820816603235 -0.03112100877443172
000200 93 bb 86 e3 f4 66 b4 3f b5 26 58 13 a6 5a 9f bf
       0.07969599299279499 -0.030619234972653248
000210 6b 22 f0 77 4b e1 78 3f 6e 22 bd 2e 04 40 96 bf
       0.006074232863291766 -0.021728577950201382
000220 cb 11 31 19 f7 2e a7 3f b3 57 a9 18 11 a6 ad bf
       0.04528019125476453 -0.0579076140026439
000230 ab 69 1a 08 25 be 72 bf 89 66 6c 94 3b d0 b4 bf
       -0.004575867323774944 -0.08130237935656671
000240 d8 44 45 00 de b8 aa 3f c6 28 b5 56 28 83 bb bf
       0.05219167474081993 -0.10747005574117727
000250 49 dc 94 09 09 fc ba bf 83 f9 d7 a3 c6 d8 68 bf
       -0.1054082535164166 -0.0030330543220308827
000260 b4 40 f7 99 1f 44 ab 3f ce 1e ac 11 ed c8 b2 bf
       0.05325411562410079 -0.07337838822797524
000270 39 d7 a2 74 f6 66 9f bf 0a 13 b2 83 a2 1b a9 bf
       -0.030666209095861794 -0.049038961959956565
000280 da 38 0c ae 92 fb ad bf 60 cf 41 3f 19 87 ac 3f
       -0.05855997442823631 0.05571822068387067
000290 08 92 b0 82 fd 86 92 bf 63 e0 d4 c3 d4 79 aa 3f
       -0.01809307203451918 0.05171074762842023
0002a0 b6 19 52 dd 68 80 97 3f 04 da 2b dc 45 02 aa 3f
       0.0229507813533247 0.05079859078061946
0002b0 c0 15 52 f4 c4 62 ab bf e7 e7 ee aa 0f fd 94 bf
       -0.05348792536191693 -0.020496601875244293
0002c0 7c f9 85 f3 a0 24 b0 3f 0d 03 9b 1f e2 77 a7 3f
       0.06305890984910961 0.045836511953444604
0002d0 18 b9 c6 44 7c 12 a8 bf 92 f3 1b 2e 7c b1 76 bf
       -0.047016032596149226 -0.005540356710977872
0002e0 64 80 30 dd 05 70 b9 3f 0a bf df 90 69 d6 91 3f
       0.099365583897908 0.017419480769546282
0002f0 1d 8b 17 5a ee 46 b0 3f bb 50 bf ee 77 7e 97 bf
       0.06358232211600208 -0.02294337649057419
000300 38 73 11 e8 e6 84 ae bf cd c5 49 85 50 9f b6 bf
       -0.05960771162856421 -0.08836844686609098
000310 d0 0c ef d0 7d 20 ac bf b3 48 4c 4d 2f ac b6 bf
       -0.05493539023839278 -0.08856483113439388
000320 a5 4e 03 63 58 11 b3 3f 29 f6 35 d3 66 e2 76 3f
       0.07448341767604434 0.0055870071986397285
000330 6f 7b 38 a8 0b 26 8f 3f 06 86 9d 5e a0 e8 66 3f
       0.015209284850298236 0.0027964718073441057
000340 b4 b3 75 ce f4 df aa bf da 57 17 42 f4 d3 b2 bf
       -0.0524899007822123 -0.07354666341356567
000350 24 a7 ef 41 21 b7 bd 3f b9 be e1 65 82 06 a3 bf
       0.11607559070366996 -0.03715903752970235
000360 ba 7f e2 b2 b2 f7 81 3f 24 37 90 3a f8 b0 bd 3f
       0.008773227771882709 0.11598159246224476
000370 bd a8 be 19 c7 e5 a5 bf c5 d7 f1 78 99 19 b6 3f
       -0.04276869000689618 0.08632811739684516
000380 ed 2b ae 4e c4 c3 b5 3f be 14 4b 2f da 4f ac bf
       0.08501841469676182 -0.05529672457991229
000390 72 9e 38 b6 ca f1 a8 bf ba 1a cb 2d 25 66 bb 3f
       -0.048719725364489444 0.10702736251833303
0003a0 6a 82 9f 09 32 e5 96 bf 66 93 5d 0a 01 4f b1 bf
       -0.02235868629202501 -0.06761175635399538
0003b0 81 f5 74 b9 e0 7c a0 bf af 19 aa 32 12 db a2 3f
       -0.03220274223211118 0.03682762974226549
0003c0 c4 06 e0 ac ce 56 9a 3f ec f7 60 6e af ef a1 3f
       0.025721768666705072 0.03503177854916814
0003d0 be 64 6b 0f 98 2c a8 3f 6d 6d af 21 d9 c0 b4 3f
       0.04721522510744468 0.08106762955087783
0003e0 4b 7f f7 48 cb 99 b0 bf 27 c8 55 ad 73 5a 54 bf
       -0.06484671145835567 -0.0012422685298045884
0003f0 e9 ce 7b f5 b4 64 af bf 7c de 2f a3 70 d0 b3 bf
       -0.0613152074492101 -0.07739929184014643
000400 e0 b2 7b 90 d2 82 98 3f 58 f5 51 56 e9 04 8d 3f
       0.023936548298410965 0.014169524142057341
000410 db 35 94 79 3f f3 b5 3f 76 f1 63 eb b5 ed b2 bf
       0.08574291914211278 -0.07393967625461592
000420 e5 3b 9b 0e fa e7 99 3f 13 6d 9c e8 77 19 b3 bf
       0.025298983708861206 -0.07460736683826878
000430 12 9b 9a 0b 2a e9 a5 bf 34 9e c9 59 d0 c9 8c bf
       -0.042794526974196626 -0.014056804409121694
000440 5d df 99 22 e5 2f 68 bf d0 8c d8 15 5d cb 97 bf
       -0.0029525256439305995 -0.023236708124511563
000450 09 b8 31 16 83 f2 b8 3f 83 04 5f 3d 18 7b 9a 3f
       0.0974504403290838 0.02586019396381235
000460 91 74 84 bc 11 36 b0 bf 40 71 ef a4 5d b9 ab bf
       -0.06332503178096462 -0.054148603805261875
000470 11 28 d1 8c 6f 6f 82 3f 9b 2b 74 ad dc d4 92 3f
       0.009001609311003052 0.01839012917211456
000480 1c c7 cc 98 06 39 5d bf 14 03 51 3d 91 34 a2 bf
       -0.0017836155340770826 -0.03555730699054585
000490 5f 46 92 b2 05 09 b0 3f a2 9a a0 4a 20 34 b2 bf
       0.06263766870167718 -0.07110788175541896
0004a0 d6 c1 c9 11 a0 8b 79 3f f2 3f bb e9 47 4b 69 3f
       0.006236672660279349 0.003087654547790913
0004b0 71 dd 15 ac 0b f5 ae bf ea 72 dd 9e 0f 4a b3 3f
       -0.06046329951908092 0.07534883144894491
0004c0 f9 d2 c7 7e 35 5f 77 bf f3 5d 80 d9 0e 29 af 3f
       -0.005706032720344417 0.06086012272879406
0004d0 2c 58 33 27 fb 48 a6 3f cb ed 15 1e 66 f0 ab 3f
       0.0435255513527156 0.0545684730268153
0004e0 8e 73 ee 8b 12 f0 87 3f 75 90 93 ca 16 2c 81 3f
       0.011688370604866962 0.008384874398366752
0004f0 e9 17 2b f6 9e da a9 bf cc 18 cf ae 15 1e b8 bf
       -0.050496070432515534 -0.09420905607030078
000500 0f 84 7a 71 ca fe b5 bf cf 9b eb c7 4e 48 af 3f
       -0.08591904898140988 0.06109853926118768
000510 eb 2f 10 43 6e b8 6b 3f 04 e4 85 1f bd ad b1 3f
       0.003383841853525018 0.06905729312519787
000520 1b 8a a1 c5 4b 76 92 bf c3 4c 7d ec 30 2e 76 bf
       -0.018029388368072313 -0.0054151450238634794
000530 11 3e da 6b 5e 90 b5 3f cc 8b 04 d9 37 13 9f bf
       0.0842341435729781 -0.030346748944008614
000540 31 60 cf 4f cb 47 a2 3f 42 8f b9 a5 80 be b6 3f
       0.03570399617427745 0.08884433790222793
000550 27 80 22 58 ce 58 b8 3f 56 42 68 a8 0b c6 a1 3f
       0.09510507251479848 0.03471409254791939
000560 d7 64 b4 6c 05 96 a2 3f d6 6f 61 e5 6b 02 7f 3f
       0.036300820846187846 0.007570668667621979
000570 f0 7e fe 5c f3 23 ab bf a0 16 1a b1 ff ac 8d 3f
       -0.05300865659887488 0.014490125267239862
000580 fb 55 d8 e3 25 b5 a9 3f 76 d3 f6 b0 33 15 a1 3f
       0.05021017462074081 0.03336488280493814
000590 ff 31 bc aa 55 c4 ad bf 0f c0 9c 07 03 33 9b 3f
       -0.05813853940171398 0.02656178220712496
0005a0 9f 2a 89 14 08 9b a0 3f fd 04 42 a0 dd 0e b0 bf
       0.032432796961605385 -0.06272683298631772
0005b0 7e 16 6b 9a 2b f7 90 3f 00 d5 3d a3 6d 83 81 bf
       0.01656787996286945 -0.008551460785137355
0005c0 61 f7 cc b1 9c 86 88 bf 3c 06 ff 06 38 70 a5 bf
       -0.01197550218204996 -0.04187178693201729
0005d0 a6 08 57 ef 62 7e a7 bf 14 ba 27 8c 8f ff a4 3f
       -0.04588612720137179 0.041012273653780934
0005e0 30 ca 8f a4 29 c1 9b 3f 70 7b 3c 68 80 a1 6b 3f
       0.027104044598624977 0.0033729083969684034
0005f0 a2 8d f2 a6 0b 84 ac bf c3 18 7e 7e 46 f0 8f bf
       -0.05569492733891514 -0.01559500764393496
000600 ad a7 37 07 6b c0 81 bf 8e 72 64 81 14 53 b9 3f
       -0.008667789609677923 0.09892395171159249
000610 69 7b ca 78 c8 07 b1 3f 10 5f 46 7a 6b a9 a0 3f
       0.06652501057622619 0.032542570758947176
000620 ee 60 c4 ee 8e 35 9a 3f 26 17 8f d1 a9 58 9a 3f
       0.02559493381804228 0.025728848853552887
000630 8e 38 51 00 91 77 b2 bf 90 98 be 7c 41 cb a1 3f
       -0.07213693864579993 0.03475384376297186
000640 c0 23 99 9b c1 42 a1 bf f5 a6 ed eb b2 87 92 3f
       -0.03371243500129806 0.018095775270388043
000650 ca 25 0f e9 97 78 a4 bf aa 40 e3 42 93 6f b1 bf
       -0.039982554626088865 -0.068108753042227
000660 8b f6 2d 39 89 8b b2 bf 7c a2 51 cb 2c 8d 98 3f
       -0.07244165082917157 0.023976039800262403
000670 e8 4f 2d c0 87 d1 98 bf c1 ed e7 48 31 e0 a8 bf
       -0.024236794571450476 -0.04858545317616914
000680 58 01 20 eb 14 db ac 3f c1 a6 1f f9 20 01 b0 3f
       0.056358960820946435 0.06251722414131235
000690 10 df 3a a3 0b 37 a4 bf 0b 93 a0 96 7b 0a b6 bf
       -0.03948246352723406 -0.08609745433257047
0006a0 a0 9f 0f 35 46 8f a4 bf 60 38 5e 94 a4 b6 46 bf
       -0.04015559575765271 -0.0006931594477792673
0006b0 47 be 5f 8d e1 68 a4 3f 4c 2d 6e e2 c3 71 b0 bf
       0.03986267901188661 -0.06423591878972451
0006c0 2b ef 11 48 d5 dc b6 3f c8 d7 cf c2 f1 d1 b8 bf
       0.0893071461632046 -0.09695349699163025
0006d0 f0 d2 e8 d5 65 09 ae bf 66 c5 7d 09 1a bb ab 3f
       -0.05866544948768204 0.054161847742657795
0006e0 57 3d 33 85 49 c7 a2 bf 78 f6 10 83 85 88 b9 3f
       -0.03667669058779193 0.099739403246497
0006f0 12 be e7 bc 80 bd 9e 3f c8 57 4b 09 63 58 b6 bf
       0.030019771127568325 -0.08728617646133252
000700 9f dd bb c5 4f 67 92 3f 7e e4 b5 b8 56 07 9b bf
       0.017972227519718605 -0.02639518263228923
000710 04 92 41 78 2b bc b3 3f 9c 58 36 d4 a4 ee a8 bf
       0.07708999334278849 -0.04869570818407107
000720 1b 02 74 d0 8d 10 69 bf ed 7b 59 ef 7f 89 b4 bf
       -0.0030596513566936274 -0.08022307961935811
000730 dc 72 ea 5f 2c 20 ac 3f dd f8 bb 0e 8d 71 a4 bf
       0.054932963093255543 -0.039928825424782245
000740 5d c2 41 a6 fe 62 aa bf 4f e3 74 6f cf ab aa 3f
       -0.051536519808796234 0.0520920585208332
000750 6a 38 3c 5b cc b7 8d bf 63 f1 08 dc e3 d4 b5 bf
       -0.014510723623541295 -0.08527969476648915
000760 ca 38 a4 8b e6 be 9a 3f 01 a6 55 eb d2 9f a0 3f
       0.026118852875747924 0.0324693596147192
000770 1c e7 2b 88 ee 99 b7 bf a2 7e d1 28 85 33 ad bf
       -0.09219256233691592 -0.05703369258185133
000780 96 ca b4 eb 84 be ae bf ae d3 63 ff cc 8b b6 bf
       -0.06004729630730769 -0.08807069048982782
000790 f6 fc 51 a9 21 d2 a5 3f 61 b3 14 86 83 97 9b 3f
       0.04261880103967457 0.026945166643759125
0007a0 ce 1b 1b 6d 3f 36 89 3f 8c ea 34 3b 5d 8d 92 bf
       0.012310500638148893 -0.018117386568727897
0007b0 3d f9 bc 95 a8 8d 95 3f db 7f 4d 06 04 4f a5 3f
       0.021048196925442787 0.041618467110992895
0007c0 fc e2 67 76 3a e4 b8 3f b1 79 13 29 d7 11 9e bf
       0.09723248854414729 -0.029364930994114583
0007d0 f0 6b 7c ed 39 35 b1 3f b0 78 2e 92 57 19 7c 3f
       0.06721841857908806 0.006860105585387341
0007e0 c3 71 31 53 44 0a 8b 3f 7e 29 ea f9 4f e5 ab 3f
       0.013203176297047819 0.0544838898250246
0007f0 54 b8 1e 58 d5 fe a1 bf 2c 70 63 b6 37 34 6e bf
       -0.03514734936412425 -0.003687008679760259

param_3 f8 [64]
000000 a7 a1 76 48 ad 26 65 bf 1a e0 e6 b7 34 7a b3 3f
       -0.0025819191393631927 0.07608346452514106
000010 80 66 52 81 14 21 63 bf f1 74 50 9d 11 3a 91 bf
       -0.00233510975756418 -0.016823077418043068
000020 f2 ab a0 79 c4 33 9b 3f 7d 18 ab a6 67 c5 b3 3f
       0.026564664767800346 0.0772309095292218
000030 65 cd f0 cb 46 68 b4 bf fc 51 f2 66 fd 5e af bf
       -0.07971613387126338 -0.061271590058058906
000040 43 43 07 e8 a0 9e b0 bf 0d 8b 04 11 04 c4 b2 bf
       -0.06492047943835381 -0.07330346503708203
000050 79 c4 04 ce 4b e9 a1 bf 9f 50 c7 cc 09 80 a8 bf
       -0.03498303308368462 -0.04785185456026508
000060 66 3b e6 8f cc a0 81 3f 4b 1c 86 80 92 43 9f bf
       0.008607481137713879 -0.030531205267404975
000070 51 f6 8e fc c1 28 91 bf 3d 42 7f 7d 1b ff b3 3f
       -0.016757041015571798 0.07811137975591805
000080 2f f3 9d 52 9f 2a af bf 5a a1 e9 51 fe 30 94 bf
       -0.06087205775745585 -0.019718145131635147
000090 d9 f4 0c 76 87 fc a5 bf d5 46 de f1 cb cc 81 3f
       -0.04294226947829722 0.008691399878248
0000a0 a3 91 1a cb 05 64 a5 3f 51 d1 f6 74 c2 b0 ac 3f
       0.0417787371091294 0.056036068704460214
0000b0 2f f0 54 27 e8 26 66 3f 21 a6 83 02 cb 0f b0 3f
       0.0027040991068627766 0.0627409821642222
0000c0 8e 7d e3 bd 55 cd a9 3f 72 92 6d fa 60 0b af bf
       0.05039470618225571 -0.060633688516451026
0000d0 70 25 0a 5d 89 0a a7 bf 6d dc 21 42 b1 15 9f 3f
       -0.04500226269471852 0.030356187497514165
0000e0 e9 89 d5 fa 99 7c b5 3f af 23 85 70 44 6c 96 bf
       0.08393251775627388 -0.021897382133179096
0000f0 ec 7c 83 0d 7b 74 a8 bf c1 e2 1e c1 73 b4 b0 3f
       -0.04776367702447168 0.06525348152980383
000100 3f 4d 7d 32 22 30 ab bf 28 f6 76 21 0b de a1 3f
       -0.05310160509420791 0.034897182307286834
000110 99 1d 94 cb d5 13 b5 bf fa 63 09 98 b9 c4 b5 bf
       -0.08233391018085569 -0.08503303491433192
000120 ea 60 b1 93 e3 88 81 bf 4e aa b5 dd 37 56 9c 3f
       -0.008561876244286688 0.02767264643390837
000130 f3 1f 78 55 7b 2e b0 bf 30 c4 f2 22 48 e2 a7 3f
       -0.06320925556803995 0.046648267999792714
000140 6e 80 28 10 2d cd b0 bf 9f e0 34 16 35 68 78 3f
       -0.06563073772895375 0.005958754892439937
000150 e4 85 5c 7c cc 59 a1 bf 65 c0 ef 07 d4 d4 a6 3f
       -0.03388823526462284 0.04459250065690482
000160 30 97 37 96 87 86 ab 3f 0c 88 8a a0 ef a2 b3 bf
       0.05376075466828778 -0.07670495671712291
000170 9a 38 24 86 7f d2 ab bf e3 8e 52 11 e0 c4 b1 3f
       -0.05434034836263031 0.06941032812988683
000180 e4 4e ea a2 29 8d 8e bf e7 bf 48 12 54 d8 70 bf
       -0.014917683872489325 -0.004112556842798632
000190 fb ae 61 97 0b 0c ae bf 27 a6 1c 48 79 65 b6 3f
       -0.05868564818305618 0.08748586664719281
0001a0 71 cd 16 9e 1b 25 b3 3f 70 f7 ab 96 29 89 b6 bf
       0.07478497132870189 -0.08803043297299751
0001b0 cb 60 ca d0 2f 5e 82 3f b4 62 7c 59 ce d8 b0 3f
       0.008968709525376891 0.06580819782937902
0001c0 fc dc c3 00 47 26 89 bf 95 36 9b b0 2c e0 86 bf
       -0.012280039511536327 -0.011169766559216124
0001d0 b5 54 1b d9 2a d7 95 bf c8 a6 67 b9 a2 52 b5 bf
       -0.02132861089815626 -0.08329216982351817
0001e0 ae d5 08 b6 00 46 aa 3f 33 ad 76 7b 75 4a 7f bf
       0.05131532880879362 -0.007639368930010537
0001f0 1d 28 c6 de 71 7e 76 3f a8 26 32 53 e4 1c a6 bf
       0.005491680913459998 -0.04318917766165714

param_4 f8 [3, 64]
000000 c4 bd 61 b8 f4 79 b4 3f 60 17 97 df a4 85 b0 3f
       0.0799858999396213 0.06453924616570594
000010 21 27 c9 de ec 60 4f 3f e5 8b fc 27 78 0e ba 3f
       0.0009575993149806042 0.10178328491433282
000020 1b 11 57 93 51 42 ad bf ec 81 1c 8d e3 6d a7 3f
       -0.05714659617982162 0.04576026055861235
000030 ff b6 78 1a e5 cc a1 3f 0e 3e e3 1c a0 10 a4 bf
       0.0347663492978949 -0.03918934204704892
000040 c0 a6 f6 be 09 cb b1 bf b5 7f 98 e7 82 1f ac bf
       -0.06950436508364088 -0.05492791249366694
000050 f5 b8 c5 34 47 70 a8 3f b5 ba 28 07 60 15 a4 3f
       0.04773161429590004 0.039225579141534274
000060 b2 2b b2 43 75 7c 98 3f 7a a3 2b 34 85 4e b0 bf
       0.023912269837221785 -0.06369812511151265
000070 5e d0 fc 04 9a 6c bb 3f fc 89 ef 8b 81 4d a9 bf
       0.10712587949530092 -0.04941944916915372
000080 38 18 1b ca 81 da 70 bf 91 45 ee 0e f2 f4 b6 3f
       -0.00411463450445209 0.08967507233162154
000090 46 45 49 a3 7a 61 a4 bf 3f 8f ef ba 56 d7 a7 3f
       -0.03980620616187962 0.046564779586133025
0000a0 22 94 f4 26 b7 e6 bb bf eb e7 fa c4 31 4d ba bf
       -0.10898918820437634 -0.10274039324841026
0000b0 56 28 c8 ca eb 82 a5 3f 69 ae 42 87 78 68 ae bf
       0.04201447344173974 -0.05939079905632811
0000c0 89 7c 88 e1 25 96 6e 3f de 61 b9 81 86 69 a9 bf
       0.003733705507570632 -0.049633220038859824
0000d0 60 73 30 ec bf fa 92 3f ee 53 a6 e3 4a 76 ba bf
       0.01853465918621866 -0.10336750085691879
0000e0 3b 52 de 92 5c 97 b1 3f 8f b9 e2 43 84 a3 ad bf
       0.06871584497123077 -0.05788815811807801
0000f0 66 40 2b cd ef 53 b5 3f 88 07 91 3e bb b7 89 3f
       0.08331202277190783 0.012557471129301737
000100 c7 f0 99 da bb 14 76 bf 8d e0 07 dc ea 1f b5 3f
       -0.0053908670466819636 0.08251827117772077
000110 e7 50 55 7a 28 0f b1 bf 8d 08 10 e2 b2 7d a0 bf
       -0.06663754450466151 -0.03220900544694514
000120 25 33 6e bc 18 cc b5 bf 27 9c 01 18 46 9a 9b bf
       -0.08514551735261174 -0.026955695357539746
000130 32 e5 45 5c 05 45 b8 3f fe 76 50 87 ab 50 a5 bf
       0.09480317595252499 -0.0416310885122879
000140 09 41 8b 7d 72 f0 b1 3f 5d a1 13 c2 84 50 96 3f
       0.07007518353498567 0.021791529031277224
000150 ea 06 a7 22 97 22 bc bf a2 1b 77 48 88 09 b6 3f
       -0.10990280719763815 0.08608295220538634
000160 41 67 d0 20 a9 4e bc 3f b2 d6 ea 1f 96 0d ae 3f
       0.11057526637196437 0.058697406192931637
000170 c6 f3 00 67 ee 98 9a bf 53 71 7f 2c 49 02 a1 bf
       -0.025974011456344724 -0.03322056453882518
000180 41 86 14 7e 5b 3d 9e bf e3 48 63 eb bf c4 9e 3f
       -0.029530934877703755 0.03004741548722557
000190 7e f3 61 bf aa 27 a5 bf 3f ec a3 57 81 a2 9b 3f
       -0.04131826006139415 0.026987095808163494
0001a0 90 61 97 1b d3 92 b5 3f e3 4c d9 5c 46 4a a0 bf
       0.0842716162072803 -0.031816672166906
0001b0 88 3a 78 91 15 19 98 bf 6e 88 b6 13 ce 59 b6 3f
       -0.023533188823473355 0.08730781537318119
0001c0 0f 1c 16 1f b9 6d ab bf 80 e1 c0 1c 01 d9 ac bf
       -0.053571496052477234 -0.05634311176294471
0001d0 9e 46 a6 0b f5 13 ba bf ef 74 b3 f2 e5 7f 95 bf
       -0.10186702284252155 -0.020995705545705453
0001e0 39 9d d4 b4 67 5a b1 bf 57 74 15 e2 a9 7c ac bf
       -0.06778572239692417 -0.05563860783397761
0001f0 c7 db b0 6e 00 f6 ba bf c2 5f fa 97 07 58 a6 3f
       -0.10531618788159768 0.04364036302757725
000200 07 34 99 8c 3b e3 a2 bf 29 3f 95 50 65 d0 b9 bf
       -0.036889897263428444 -0.10083611695631291
000210 44 eb 2d 7b 3d ec bb 3f 15 fa d6 ff cc c8 a4 3f
       0.10907348878201356 0.040594488363684324
000220 76 6b 3d 53 e1 35 aa bf bc 7b 21 f6 eb 3c bb 3f
       -0.05119232312309567 0.10639834174206347
000230 3b c4 54 7b 6a 50 af bf e5 38 fe ee 89 4c a9 bf
       -0.06116039996630503 -0.0494120697249956
000240 e2 5d 5a d0 4e 95 b7 3f 45 ba f1 01 ec 3a a9 bf
       0.09212200724356692 -0.04927766345723631
000250 c3 52 62 0a 92 61 b6 3f 6b 7f 08 29 20 29 b7 3f
       0.08742630723493065 0.09047127725398034
000260 c6 02 82 82 ea dd a7 bf 98 ef 13 27 7b 34 b2 bf
       -0.04661496012795889 -0.07111329750108408
000270 83 c7 53 3e 2a 72 b3 bf 7d ee ed 12 a2 37 ad bf
       -0.07596076985990234 -0.05706507187912011
000280 a2 71 de a6 b2 53 bd 3f af 91 1a da 5c 8d 96 bf
       0.1145583779711559 -0.022023630916594147
000290 22 a4 da 50 0e e1 b5 bf a0 60 63 4b 2f 42 90 3f
       -0.08546533082939381 0.015877474762277743
0002a0 1e 95 29 ab 45 5a 9c bf c9 46 f0 7c 91 98 a2 bf
       -0.027688110896993405 -0.036320253850261226
0002b0 9d 65 e2 4d b9 53 a8 bf 10 e4 e1 cd 9c 84 b1 3f
       -0.04751376224266866 0.06842975641656346
0002c0 1a 9a 72 96 ab 02 b8 bf bf 68 fa d9 98 53 6c 3f
       -0.09379074500120801 0.0034578309421934013
0002d0 a6 49 14 36 1a 50 b5 bf 23 ec 1d 30 60 a9 a0 3f
       -0.08325351543707046 0.03254223430027305
0002e0 d9 87 5b 60 51 61 85 bf c1 d1 6f 58 21 50 b5 bf
       -0.010439525368784718 -0.08325394066907334
0002f0 83 75 5d b0 08 8c 25 3f ab 65 f7 12 5b bd 91 3f
       0.0001643906218146523 0.01732389739286126
000300 1c 7b f4 20 3c ae a2 bf d9 50 e8 09 4d 65 ab 3f
       -0.0364855566242481 0.053507239779863
000310 2a 6f 21 43 a2 65 7a bf 50 77 10 52 65 3e a6 3f
       -0.006444581829864219 0.043444792049042946
000320 e1 be b2 56 de ac a1 3f e6 29 a8 5f 3e 13 b2 3f
       0.03452200706794684 0.07060613475201868
000330 35 57 03 75 51 52 a6 3f 14 cc de 55 e7 1b ac bf
       0.04359678796178771 -0.05490038798543409
000340 72 8a 24 5b 30 aa b0 3f 82 35 79 56 d0 e1 b6 3f
       0.06509687638439646 0.08938314543885009
000350 a8 b7 cd d3 7a c3 c0 3f f7 62 21 d6 71 87 b3 bf
       0.1309655698964296 -0.07628547170441978
000360 93 3c 64 fe b6 e5 81 3f 10 6c 4d f2 3c a9 99 3f
       0.008738927496351223 0.02505965451141995
000370 e1 fc 34 93 0b 09 b1 3f e4 85 7f f3 04 ff b9 3f
       0.06654426902695178 0.10154753632334451
000380 b6 49 3b 9e 7a 1a a1 3f ad 5f 72 97 69 21 84 3f
       0.03340514356172568 0.009829354223526677
000390 0f 3b 64 be 3a 67 50 bf 23 69 38 49 49 91 9d bf
       -0.0010011743229971259 -0.02887453565026833
0003a0 29 e6 b9 c6 e4 a7 a7 bf 2b 8f 1f a9 69 8d b4 bf
       -0.04620280195099397 -0.08028278712259566
0003b0 2d 6e 42 86 2e d1 a0 bf e7 e1 84 a9 a0 f2 ab bf
       -0.032845929993723245 -0.054585476582761853
0003c0 ec 76 47 c4 a2 7a 9d 3f 4b 9d fb a5 51 2b 91 3f
       0.028788130979470347 0.016766811137953124
0003d0 ea 02 8a 0a 7a 52 b3 3f f4 2d a5 e5 46 bd 4a bf
       0.07547724492361466 -0.0008160206009874536
0003e0 13 39 eb 0a 92 d8 90 3f a4 c9 49 79 0e e4 a6 bf
       0.016451150814469417 -0.04470868330544711
0003f0 6b 58 67 96 f5 87 b9 3f 0b 8e d0 ae 59 62 b3 bf
       0.0997308246799961 -0.07571945684372154
000400 c0 1b eb d4 42 2c b4 3f 56 47 fc a6 52 cc 6a 3f
       0.07880037019923147 0.003271256857154829
000410 2e 0c 22 0f 74 51 b3 bf 99 cb b7 0e 5d e5 5c bf
       -0.07546162957628219 -0.0017636688961572887
000420 e1 88 c9 e4 f3 7e b5 bf c7 49 69 42 48 b3 a7 bf
       -0.0839683946192369 -0.04628969011959643
000430 24 8b 22 30 d1 f1 ad bf fc 33 35 11 ca e2 65 bf
       -0.0584855433710543 -0.0026716181397774524
000440 e4 af 11 73 da 28 aa bf 10 fb e9 71 5a 41 92 3f
       -0.05109293608333568 0.01782742805743981
000450 dc 33 22 20 d7 26 b6 3f 2f 1a ef 6f d8 38 a8 3f
       0.08653015646468937 0.04730869642621759
000460 eb 74 c1 8c b7 9f a2 bf 77 51 27 e8 0c 15 bb bf
       -0.03637479394158468 -0.10578995387851885
000470 40 df 4b 8f f3 fe b4 bf 18 db 3b 95 28 13 a1 3f
       -0.08201524971434271 0.03334929296209149
000480 77 36 38 98 f0 26 a8 3f 8b 71 de b8 86 83 9f bf
       0.047172087270252065 -0.03077517035818426
000490 24 ca b8 c6 c2 d5 b5 bf 9c 50 f5 d8 d7 a3 ac bf
       -0.08529298163993154 -0.05593752406517291
0004a0 e0 f3 6e 6f c4 3f a5 3f 95 36 c8 41 f9 77 8f 3f
       0.04150213108321288 0.015365550346383908
0004b0 fd 22 9a c5 00 54 bc 3f 34 7e 62 64 bc 46 b6 3f
       0.11065678428907329 0.08701684428023598
0004c0 9b 04 1a b5 55 7e a4 3f c0 1a 8a c6 0a 6c a8 bf
       0.04002635799134532 -0.04769929574563525
0004d0 3d 0c c2 a2 b2 b4 aa bf e7 57 fa 5d 5a 10 9e bf
       -0.05215986477653487 -0.029359256730991403
0004e0 07 e8 ea 25 48 76 bc 3f 49 f3 92 6c 50 29 8b bf
       0.11117983747217873 -0.013262394250313074
0004f0 71 da 8d 1e 7d 50 a7 3f 4f dc 2b ac 02 b1 b2 3f
       0.04553595540976552 0.07301346496011372
000500 b5 f7 43 7a 66 7f b0 3f 04 84 f5 54 f5 df 7e 3f
       0.06444397435185929 0.007537802054998547
000510 d7 d0 cc 40 a7 c7 ae bf 6f a4 4b 7a 2d ad 9d bf
       -0.060116984043277526 -0.02898093279774055
000520 a3 0b af 16 c1 2f 9c 3f e9 d1 60 80 95 ec b4 3f
       0.027525918015964056 0.08173498520120116
000530 d7 11 a7 02 ff 65 b9 3f a8 ef d0 77 e6 03 ac bf
       0.09921258749734051 -0.05471725666617938
000540 5d 18 55 89 23 08 96 bf 77 e1 f2 0f 39 bf 9e 3f
       -0.02151542211256473 0.03002633247226202
000550 a5 e5 9a bb a6 27 9a 3f 02 5b 25 87 b6 7b b6 bf
       0.025541882706169656 -0.08782521056614814
000560 c4 0b 9b b1 5d df a4 bf 41 c5 dd 66 74 57 b1 3f
       -0.04076664727246951 0.06774070273765621
000570 46 a8 da 65 51 b8 b6 3f c3 ca 78 43 ac d8 95 3f
       0.08874996887848949 0.021334354036478553
000580 66 33 fc 40 83 97 aa 3f c7 5e b8 e8 5a a4 b5 bf
       0.05193720024371977 -0.08453911000867285
000590 6d d8 83 c8 8d 82 b1 3f b2 24 59 1b bf fc ba bf
       0.06839834351907977 -0.10541910569840487
0005a0 93 8c e4 24 c9 cd a8 bf a4 21 73 77 05 cb b3 bf
       -0.04844502044058987 -0.07731661001446938
0005b0 3b 9c 99 78 6a fc 88 bf 02 cd a3 ee 0f 79 ae 3f
       -0.012200195126935145 0.059517381554451645
0005c0 30 bd 60 d3 22 77 bb 3f e6 11 e3 01 dd 78 af 3f
       0.1072866216716093 0.061468988876672445
0005d0 07 78 83 ec 57 92 ac 3f 6d 8a a5 33 30 62 b0 bf
       0.055804011937411295 -0.06399823437599546
0005e0 83 36 24 b7 6b 68 9f 3f 15 e8 fb b0 84 9e 9f 3f
       0.030671771100108557 0.03087813692307158
0005f0 6a 93 8a 6d 04 9d 9b 3f c5 e8 36 b3 f1 c0 bd bf
       0.026966160951491437 -0.11622534394601576

param_5 f8 [3]
000000 ee 1c 6d 12 c3 dc b1 3f 1f ff b4 b6 90 d4 a8 bf
       0.06977481078967049 -0.04849674444494511
000010 27 fe 64 31 d8 43 b3 bf
       -0.07525397497101292
