best_regression_Small_model.npz (npz, 8198 bytes, 4 tensors)

param_0 f8 [64, 10]
0	0x3fc4fbaa8a73818d	0.16393024215996058
1	0x3f8ea5da4a1bea2a	0.01496477640784118
2	0x3fd2c28541922c81	0.2931225910512652
3	0x3fb31ca3b2fa16d5	0.07465575332215775
4	0x3fb4bebd1df94cd1	0.0810354421785633
5	0x3fd566157e605d1a	0.33435571042487455
6	0x3fc80db70380fbc1	0.18791854544721612
7	0x3fd02811426af279	0.25244552122220615
8	0xbf8c0029f7a0fdb3	-0.013672187680753156
9	0x3fb7851c4bdc0ada	0.09187485553779187
10	0xbfc413394bfa11e9	-0.15683666429335055
11	0xbfac7f41d1db6252	-0.055658394686990534
12	0xbfb07570bde27029	-0.06429199825146327
13	0xbf9c568b5b20b04b	-0.027673890530579375
14	0xbfb5c17ea3e78502	-0.08498374463626493
15	0x3fd50fcd43b2de45	0.3290894662017972
16	0xbfa4077429732b04	-0.039119367656516274
17	0xbf91260006f2b8e4	-0.01674652140052836
18	0xbfba04963ed432b3	-0.10163249048145921
19	0xbfc9ef5668dc2392	-0.20261650199998066
20	0x3fcb2dfe604eb50a	0.212341115021822
21	0xbfd00dc15cd310da	-0.25083955826654647
22	0x3fcb628ff23b4267	0.21394538238247948
23	0x3fbda031dafbb2c9	0.11572562786359265
24	0x3f939b74eb314260	0.01914770780087094
25	0xbfbe42be2b1aa482	-0.11820591499658131
26	0xbf914d782a0f4533	-0.01689708477699021
27	0xbfa1277359a06692	-0.033504109087698755
28	0x3fc03984014ad381	0.12675523818111503
29	0x3fb6ea6c7497bb58	0.08951452108861468
30	0x3f8c6ac5bdfe3f7d	0.013875527248984327
31	0xbfc6ebeb4d861e4b	-0.17907468114229838
32	0xbfc41a1ab308e5f3	-0.15704663984233455
33	0x3fc34909754f3655	0.1506664107131878
34	0xbfb64aeb555af98f	-0.08708067735549306
35	0xbfc57b84d5ae22e4	-0.16783199723820197
36	0x3fcdcbf2c02ebd50	0.2327865064994321
37	0xbfb8a45ff4916bd8	-0.09625816079044058
38	0x3fb6f28ed06b1090	0.08963863933883176
39	0xbfc75fcd6d470df4	-0.18261115871256062
40	0x3fd22c46be64285f	0.2839524134911979
41	0xbfd03dc90f4d3ce9	-0.253771080916478
42	0x3f920692473dfa2d	0.01760319289996397
43	0x3fcf02e1f2a912b1	0.24227547024397247
44	0xbfca401f8a3f4cdc	-0.20508188486437617
45	0x3fb8f622a2bed229	0.09750572655941227
46	0xbfc1d757e458ddaf	-0.13938425683748565
47	0xbfcc7943252c3e5c	-0.22245063128547116
48	0x3facd1a2a568279f	0.056286890689150264
49	0x3fd27cff78e8ecff	0.28887926871875885
50	0xbf2279a6fa3b718f	-0.00014095462130726515
51	0xbfb39a9d3373f528	-0.07657797342468042
52	0x3fc8caa1e5eb828a	0.19368385054169251
53	0xbfaa5d4b1c19344c	-0.05149302213667592
54	0x3f80b70d831e1c06	0.008161645473377287
55	0xbfb3e5d6f5ad27bb	-0.07772582529028586
56	0x3fb8c8abcda55436	0.09681199808740434
57	0xbf69806449220547	-0.003112979765376753
58	0x3fc25c1d18a1036c	0.14343608572564948
59	0xbf823ee166eb1d47	-0.008908997491188798
60	0x3fabadab23c6308a	0.05405936061569701
61	0xbfb69d807a1fb6c8	-0.08834078771152598
62	0xbfcebdf6ffcc86a0	-0.24017226686651316
63	0x3fb5e913ffaa7385	0.08558773986665187
64	0x3fb631302568ef22	0.08668805039718255
65	0x3f95ac9d41ce95fa	0.021166283742465077
66	0xbfc6342ef82ca902	-0.173467513255055
67	0x3fc60cb52fb8369f	0.17226281004007135
68	0xbfd364ee30dcc25e	-0.3030353047534272
69	0x3fb734c608dc491f	0.09064901081390929
70	0x3f9db92379e38b98	0.02902656012964719
71	0x3fb74f1465f94b87	0.09105041017146052
72	0x3fd5d57584d2172d	0.34115350695388963
73	0x3fb0cde45437051c	0.06564166122463572
74	0xbfa7d2e81075c9c1	-0.04653096390656542
75	0xbfc629ba5058cbb6	-0.17314843104540295
76	0xbfaa117f8678b23d	-0.05091475025651391
77	0xbfd65f7df7dbdb66	-0.3495783730026488
78	0x3fd7201278cbe2b0	0.3613325290348639
79	0xbfc7e25e1878c05c	-0.1865956897249842
80	0x3fc33a85b15b3750	0.15022345695472916
81	0x3fcad2849b32d4e3	0.20954949930243236
82	0x3fc113e985f35b90	0.13342017212445656
83	0xbfa45a51049404c7	-0.039751560028898285
84	0x3fcc4f9f04e5bb6e	0.22117984522943906
85	0xbfacae1275be5d54	-0.05601556479740091
86	0x3fb4faef2a3b74b8	0.08195395260868821
87	0xbfbb342cfe1c8238	-0.10626488880053209
88	0x3fcaac0450d1d734	0.20837453790925908
89	0xbfc9d2cd51fd0db1	-0.20174566748947378
90	0xbfaae9545c09dd32	-0.05256141303555707
91	0xbfb7cbe9a8f04815	-0.09295521139600312
92	0x3fc91f58c46fe0dd	0.19626912681247335
93	0x3fc878925f5a8a94	0.1911795583337904
94	0xbfc49d7056767440	-0.16105465146839215
95	0xbfcc55d34b09104a	-0.2213691822418034
96	0xbf96f0311bc2b15a	-0.022400634116523356
97	0xbfa5f7433fd3e834	-0.04290208963534817
98	0x3fbb1b53841a9c8e	0.10588571524805188
99	0xbfb968560dae16b6	-0.09924829324708181
100	0x3fc302b3eb115bcc	0.14851998308105718
101	0x3fa6e865a8d4beb3	0.04474179922033041
102	0x3fc9f329f5309f7b	0.20273327324070664
103	0xbfb27f4a10a06981	-0.07225478082583515
104	0xbf99be4bea624aad	-0.025139986210499888
105	0x3fbcd3ac5ea1498d	0.11260487852385932
106	0xbfcaae226d903120	-0.20843916272895857
107	0xbfa70881ddf95113	-0.044986780497000244
108	0xbfc35717e16bbefd	-0.15109537608031323
109	0xbfc5d809ce8ea435	-0.1706554659442944
110	0xbf94d293c77f49e3	-0.02033453850874335
111	0xbfc29a939525f035	-0.14534230024935516
112	0xbfc072413c832b63	-0.12848678068834393
113	0x3fa4695b112498cf	0.03986630043282135
114	0xbfaae8f598834735	-0.052558588855062295
115	0xbfd2cecdaec2dff5	-0.2938722807552943
116	0xbfc25b15beae8716	-0.14340469179756415
117	0x3fb4e3c4af4655f7	0.08160046843689615
118	0x3fc8ff78436522a6	0.19529631891989147
119	0x3fd0386bbe7a7afb	0.2534436569348341
120	0xbfd38b47e04bd4c9	-0.3053760233299952
121	0xbfca72ef85b05a68	-0.20663255718018836
122	0xbfc3dab212943c15	-0.15511155993633055
123	0xbfb05248f4c77ee9	-0.0637555692296662
124	0x3fc1e60bd65f61e6	0.13983295409595015
125	0xbf7e4afeeb9bd6c6	-0.00739574030170837
126	0x3fcb5adec23bec81	0.21371063694082085
127	0x3fa5b6b1d62819d5	0.042409474746864774
128	0x3fd8244f30b8abcc	0.3772161460680621
129	0xbfc37d08eab1e2db	-0.15225326022825567
130	0xbfd55ed8650bb927	-0.3339138972068149
131	0xbfc8a26636452e22	-0.19245603227533176
132	0xbfd003d356a55303	-0.250233492484128
133	0x3fcbb5dcd6232b7d	0.2164875073998153
134	0xbfc15d89125529de	-0.1356669749751082
135	0x3faa6ad1f8dfbe2d	0.05159622347843782
136	0xbfb025fb9410272f	-0.06307957043477751
137	0xbfcafe1b9187fbc6	-0.21087975126280706
138	0xbfc79d58c34710fc	-0.18448934111632542
139	0xbfb66de8786136be	-0.0876145643134931
140	0x3fc33fbef6de38fc	0.15038287214378687
141	0x3fcddc189abf3957	0.23327930027012186
142	0x3fb058168ee5b2d2	0.06384411801054604
143	0x3fb9e01bc7da83bb	0.10107587460744487
144	0xbfd73de59a39f9fc	-0.36315288602045803
145	0x3fc35011e76c420e	0.15088104057259993
146	0xbfcd788d0432d13b	-0.23024141983990795
147	0x3fca9c4b4af9c2ca	0.207894717797464
148	0x3fb040afe004a09c	0.06348704547110845
149	0xbfd05ee6df043165	-0.25579234866088135
150	0xbf85cb674524156b	-0.01064186744452896
151	0x3fd177ddbdfc1405	0.2729410510367532
152	0xbfa404b447e8699a	-0.039098390367331606
153	0xbfd08e59f6140bf1	-0.25868844061932267
154	0xbfbbcd9a666ffc93	-0.1086060047236848
155	0x3fc2d827e4fcb9be	0.1472215526677711
156	0xbfd5b8e744bc6094	-0.33941060745702
157	0x3fbc64a36b9db8be	0.11091061951967426
158	0x3fc30335abc6b0fa	0.14853545081621872
159	0x3fd0f0d7a5b9d400	0.26469985183877043
160	0xbfd1bdcab81c1d18	-0.2772089765498591
161	0xbf94233658cef0e1	-0.019665574236328424
162	0xbfc706feca69c301	-0.1799009788842554
163	0xbf9c0a31775b0e31	-0.027382634076970006
164	0x3fcfac1d489f14ce	0.2474400143238768
165	0xbfa8344de5ee64a6	-0.04727405006196621
166	0x3fd2fb90a50779a0	0.2966043101895597
167	0x3fc0bf6f61a07198	0.13084213511400544
168	0xbfb033391ba666b5	-0.06328160214470809
169	0x3fbe0f27f1fea370	0.11741876276086116
170	0xbfcf09fa8d357980	-0.24249202628102395
171	0xbfa0e11988183916	-0.03296737467109005
172	0xbfce066ca7ed8a28	-0.2345710582695386
173	0x3fd485143c89bb30	0.3206225005332497
174	0xbf63302125ce8502	-0.0023422858634637453
175	0x3f7fb8b1b84c2819	0.007744497507482983
176	0x3fc8276098e49ece	0.1887017008350455
177	0x3fb6758a8587e586	0.08773103485136433
178	0x3faf402d1538d58a	0.06103649982507438
179	0xbfbdec17814e402d	-0.11688372523190145
180	0x3fc3a12604db40e4	0.15335536229259283
181	0x3fc1d0e40ae73e27	0.13918734104525862
182	0xbf9a3b8570e0cc69	-0.025617680563481935
183	0xbfd0f0827ffdfe59	-0.2646795511172733
184	0xbfa156af364b0838	-0.033864474656653376
185	0x3fce580edead0b2b	0.237062319496624
186	0xbfcb18c7e1c71549	-0.21169374965954038
187	0xbfb011ef28ea8b49	-0.06277365445070617
188	0xbfd0d18dee353b59	-0.26279018652433234
189	0xbfb5bdd5c8b98166	-0.08492790365699462
190	0xbfce49f0227d9602	-0.2366314094935405
191	0x3fbaa365895564a7	0.10405573466177263
192	0x3fc82e3c4cfc4075	0.1889109970002242
193	0xbfb1e463eeb4fdab	-0.06989121034438621
194	0xbfa5400f0c82f988	-0.04150435474138009
195	0x3f7d70340c28da25	0.007187083540478177
196	0xbfc44cfa45f3939e	-0.15859917083357983
197	0x3fd2e0abd1136cca	0.29496283929411204
198	0xbfc2b7686df4e171	-0.14622216576550387
199	0xbf86db7c8d0e8386	-0.011160824827870074
200	0xbfb1d3666f06fc32	-0.06963196001650898
201	0x3fb0edad28c604ec	0.06612665410468183
202	0x3fc2f6820491aa06	0.1481478235539983
203	0xbfce10985c45d4c0	-0.2348814440298721
204	0xbfc274b120ebf894	-0.14418615443714045
205	0x3fc4bce25ada3e37	0.1620142882934361
206	0x3fd25e3ecd521300	0.28700227785911636
207	0xbfc89feefdc1580c	-0.19238078489678434
208	0x3fd1cb02b903f705	0.2780157858650088
209	0x3fab31616f23cace	0.05311111909567999
210	0xbfa5a3231debe10a	-0.04226026287318703
211	0xbfd5b2cb883fc597	-0.33903778367592835
212	0x3fd2fda54ca60ae8	0.2967313049813769
213	0xbfd10acddbb1a366	-0.26628443197710394
214	0x3fc5e6fead8465bb	0.17111190292852804
215	0xbfce043f85f5da90	-0.2345046428778983
216	0x3fc8616f2013afe4	0.1904734522462369
217	0xbfc83e8d960ffda7	-0.1894089682318569
218	0xbf534f361d4551ae	-0.0011785534344045212
219	0xbfa0580d2cdd99a0	-0.03192177937198726
220	0xbfc0485ad6d6abe3	-0.12720809450306012
221	0x3fb3c933b0bb8a51	0.07728884758720624
222	0xbfca9f21f363a5f8	-0.20798134216538222
223	0x3fce1488298409df	0.23500158335816843
224	0xbfaa5d8c8b27795b	-0.05149497221622098
225	0x3fb495ecc13a8f07	0.08041267125605255
226	0xbfcea7de406502d8	-0.2394979299952158
227	0xbf968fae51e06f08	-0.022032474276882957
228	0xbfd1d4c5b44a5e0e	-0.27861158949369347
229	0x3fba9e13ccaf219f	0.10397456881685806
230	0xbf9d49f4b4fc1cd7	-0.02860243181842467
231	0x3fb46860efa0b955	0.07971769190109985
232	0xbf94a83c77b6f564	-0.02017302017860824
233	0x3fd447483570d12a	0.3168507120019678
234	0xbfc951d687066228	-0.19780999749197403
235	0xbfd42706cd41049c	-0.31488199276288653
236	0x3fc58b5e93231aca	0.16831571754865698
237	0x3fcfe4bfe77e872f	0.24916838458471477
238	0x3fc5855d5e599072	0.16813246828963063
239	0xbfd12cb36ff884d8	-0.26835332808157153
240	0x3fad6a32570e4505	0.05745084107105395
241	0x3fd6920077cc0fee	0.35266124438226043
242	0xbfd8de18ebfe5de4	-0.38855574651958436
243	0xbfc07b07beb1693f	-0.1287545853727554
244	0x3fc0ef97e01cb60d	0.13231180613495078
245	0x3fcd586b92c168c8	0.22926087060733935
246	0x3faa4d3614a526b3	0.05137032510772368
247	0x3fc9e9a1c4d39e43	0.20244238005328627
248	0xbfd52f7caea3a5d1	-0.3310233788930335
249	0x3f8c0423008038f2	0.013679765179429346
250	0x3fc8a0731bc6786b	0.19239653450216862
251	0x3fcb7889c18e5ac7	0.21461603117923841
252	0x3fb9708eda8a05b3	0.09937374911716894
253	0x3fd49f2f65bf79c1	0.322215890277132
254	0xbfc7279aa5b34757	-0.18089612093768423
255	0xbfc4f4ef711986b8	-0.16372483274886007

param_1 f8 [64]
0	0x3fc8dbfd50e43e37	0.19421354722770598
1	0xbfc78726236143c7	-0.18381191947494654
2	0xbfcbd0242e8938d6	-0.21728946945444844
3	0xbfa1d3b0b52f67c8	-0.03481819354756471
4	0x3fb35e91bd53685b	0.07566176292621789
5	0x3fcc63923df34fea	0.2217886736385702
6	0xbfc5b2e10de9bae9	-0.16952145747514827
7	0xbf8a5c87787677fe	-0.012871797908527324
8	0x3fb7df3145148dfd	0.09324939667254024
9	0xbfa19e1e247de2c6	-0.034409467653806966
10	0xbf9daa6ed1116ffd	-0.028970462332253522
11	0xbfc640c155653264	-0.1738511721581687
12	0x3fd3b2da9f69de8f	0.307791381528184
13	0xbf9010d0b5065be4	-0.015689145134810803
14	0x3f95346e93ffe711	0.020707824500255493
15	0xbfc6c8a998dc2357	-0.17799873317587853
16	0x3f824f940085e40f	0.00894084574314216
17	0xbfc3ce35b888613a	-0.15473052511584645
18	0xbfc818dfa982f4d4	-0.1882590844815356
19	0xbfc227ffffff3539	-0.14184570312355918
20	0xbfd4207ad5b9432b	-0.3144824111123394
21	0x3fa6b754e19daa9f	0.044367458859445146
22	0xbfb237cc00f22b1a	-0.07116389296622253
23	0x3fd02346a7844e95	0.252153075781487
24	0xbfd2974306b496dc	-0.2904822888834653
25	0xbfd27d6d7b0e8387	-0.28890549676184957
26	0x3fcf3cf5ab39b2c4	0.24404784069647267
27	0xbfce39878e34439e	-0.23613066142618505
28	0xbfd426b140a0cd6a	-0.31486159621564147
29	0xbfc9fe494d6070dc	-0.20307270315323123
30	0x3fca381ba252dc23	0.2048372786136677
31	0x3fc88189d05fa062	0.1914531962822848
32	0xbfb9e24c05f2513f	-0.10110926766566751
33	0x3fbb34a5b1ac263b	0.10627208316523078
34	0x3f72c7d81c23d2a0	0.004585117511159226
35	0x3fd061ecdd9c5d9c	0.2559768833320619
36	0xbfd1f4683924e6e2	-0.2805424268768616
37	0x3fc95a6b4b487a10	0.19807187248166302
38	0xbfcaaa9ce9c4a53a	-0.2083316937871958
39	0xbfb18c29a64540e9	-0.06854496297205838
40	0xbfc8eff929a862c5	-0.19482340368337794
41	0x3fc0670ada26ab39	0.12814460422426935
42	0x3fbcdf5f1bfcbf21	0.11278337891849023
43	0x3f9f0527bdba037d	0.0302931031751572
44	0x3fc00aca717218a7	0.12532930888500468
45	0x3fb698c3fc45f335	0.08826851758017258
46	0x3fc66111a2b1632a	0.17483730739584163
47	0xbfc5189d90784f42	-0.16481370500752673
48	0xbfa704f22ca06ded	-0.044959609935371826
49	0xbfcc33cc1d180c8d	-0.22033072872736562
50	0xbfa6cc7f488b6b98	-0.044528939824622416
51	0x3fc053ebc308abc3	0.12756106398714281
52	0x3fbefce5929084ea	0.12104639843211698
53	0x3fc0f43a00c1518c	0.13245320355293833
54	0xbfbef651be748a71	-0.12094603442941733
55	0x3fba438b051f6f07	0.10259312510555328
56	0xbfb5755615cc55ba	-0.08382165939504818
57	0x3fd1fde4d63d7557	0.28112145349390033
58	0xbfb95c3ee955bda4	-0.09906380840924683
59	0x3fb0adf650af5eef	0.06515445203637758
60	0x3fc4401875849fd3	0.15820604074656205
61	0x3fd073415cef1fa0	0.2570346267279948
62	0xbfa4198bb21058b2	-0.03925739811545394
63	0xbfb696b29f76fed2	-0.08823696511444304

param_2 f8 [3, 64]
0	0xbfb276efa3b4bfaa	-0.07212732073526121
1	0xbf795821a6141678	-0.006187564316183385
2	0xbfa2ad6ec0de6428	-0.03647943596224251
3	0x3fc2ca93f0a205c1	0.14680718660024009
4	0xbf982ec85aedbe80	-0.02361596159920376
5	0xbfb3dcc15728269d	-0.07758720758297462
6	0x3fc3a75c0e312a51	0.15354490941020285
7	0xbfb3712d1f371de8	-0.0759456826409558
8	0xbf94ec942a891812	-0.02043372640243752
9	0x3fa8a444434ae026	0.0481282550949234
10	0x3fa9c2d7007b7513	0.050314635094517744
11	0x3f9a5e4c16bd1e0e	0.02575034035478834
12	0xbfba9a0d42d6dbe7	-0.10391314393824268
13	0xbf99e55638d50e64	-0.02528891298176318
14	0x3fb9d4e59584e583	0.10090479755753816
15	0xbfb6fb807611bbc1	-0.08977511293936315
16	0xbfac08b41a43e629	-0.05475390263195507
17	0x3fc0630f357abf90	0.12802305327704433
18	0x3f90a930459edb3c	0.016270403146076293
19	0x3f752f0ac2d126d1	0.005171815905734526
20	0xbfc6bf8cddf38a00	-0.17772065007655158
21	0xbfc270cb83a0f82e	-0.14406722953020917
22	0x3fc3b1aace766c04	0.15385947304898207
23	0x3fbaec3370639ecc	0.10516664022326977
24	0x3fbac6324596f02b	0.10458673666920563
25	0x3fc41468fd16bd2b	0.15687286718228086
26	0x3fa8d8d07a96204b	0.04852916237274537
27	0xbfa0c14bc1583530	-0.03272473082697969
28	0xbfb92d6ecdb6bde8	-0.09834949991522246
29	0x3fa1ca76bc13ab70	0.034747801264379485
30	0x3fba59beeba4e95a	0.10293191197425725
31	0xbfb77d94749a0907	-0.09175994726868818
32	0x3fc2a6eeb0e6c7c7	0.14571937215583672
33	0xbfc2fe963dddf015	-0.1483943750462237
34	0x3fad373dce3ac9d8	0.05706208364917459
35	0xbfa782b682fd4b73	-0.045919135560914
36	0x3f709a0c8aa7d525	0.004053162565914624
37	0x3f959982fb4e9974	0.021093412960590155
38	0xbfa17534ed387a54	-0.03409734149703483
39	0xbfa49818efd9a1dc	-0.040222911146716916
40	0xbfc6d068a33fd1b4	-0.17823513003498948
41	0x3fc435fd6ee0de6d	0.157897643222657
42	0x3f4b33213b8b742e	0.0008300697582758248
43	0x3fc55e07f8b9505c	0.16693210262986014
44	0x3fb3d08a8c07b75c	0.077400836169287
45	0x3faa35596b7b3793	0.051188272829320834
46	0xbf88c5ce17ae9010	-0.012096033189500616
47	0x3fa2a1cb9208e9f7	0.03639064939166652
48	0xbf9667f123b850e3	-0.021880882077383822
49	0x3fb67262948b5850	0.08768287779398176
50	0xbf8977bcb575884c	-0.01243541172761211
51	0x3f858a8f5767b6b0	0.010518188338177609
52	0xbfc104c8d1ec8181	-0.13295850992382088
53	0xbfa67e8c671cceb3	-0.04393423803995002
54	0xbfbfc0c12663c026	-0.12403495013472873
55	0x3fbbcf34d24d1960	0.10863046774202223
56	0xbf76da694f522483	-0.005579387060728472
57	0x3fbdedbb7a3c6811	0.11690875753666342
58	0xbfb206059ecfe22a	-0.07040438773390947
59	0x3fa1302e8c20ea3d	0.033570723157442896
60	0xbfc3af29f9c87ddc	-0.1537830800670993
61	0xbfc070765e88f531	-0.12843207946745275
62	0x3fb8e56473d182ea	0.09725025012586355
63	0xbfbf1c5dbe10e5fd	-0.1215265835789054
64	0xbfa2c3ad817bfe88	-0.0366491528093294
65	0xbfaed9b17683db64	-0.06025461742131347
66	0x3fb69974283c54ca	0.0882790182334531
67	0x3fc448fdd52fad6c	0.15847752484783528
68	0x3fa90ee0455661b1	0.04894162031559136
69	0x3fc06d668d61b759	0.12833864119914543
70	0xbfbd23ccd16a56fe	-0.1138275157230417
71	0xbfa8f56c1ea905bc	-0.048747423880296264
72	0xbfac3d4772300f2c	-0.05515502232449729
73	0x3fc45297b77c755f	0.1587705274513764
74	0xbfaec45ae4027c8d	-0.06009182008096401
75	0x3faff8b99ca2c782	0.0624444965082054
76	0xbf96fe4952dc76b7	-0.022454400713391744
77	0xbf895d2bf384a75d	-0.012384742135129018
78	0x3fa98962613c1a39	0.04987628399799288
79	0xbfbf7c5865ea3ca5	-0.12299110878142246
80	0xbf8d7ec5329ded3b	-0.014401951415257677
81	0x3f8e148331a39849	0.014687561943400722
82	0xbfc1facda4a91891	-0.1404664091116428
83	0xbfa6706ff15a58dd	-0.04382657834246271
84	0x3fc1fcb2cde4e306	0.14052424481794662
85	0x3f85d0a71c41ac37	0.010651879834958062
86	0xbfc0882b95d88f9e	-0.12915558640190467
87	0x3fc6821702aa542f	0.1758450282110586
88	0xbfc214da0bda42e2	-0.14126134470691115
89	0x3f94d02c7608878d	0.0203253695527859
90	0x3fc697e9762bd3d5	0.17651098508909394
91	0x3fa37b96c6350346	0.03805228395004305
92	0x3f81db6fbb8b5f9b	0.00871932307329342
93	0x3fb1d4506abcc2aa	0.06964590650455685
94	0xbfc0c8bdf8c0c3b0	-0.13112616201536076
95	0xbf9e95d9be233d55	-0.029868509512025316
96	0xbfbaf944d5b0b851	-0.10536604134606022
97	0x3fc0a8d5ec402df2	0.1301524547164799
98	0xbfb277d31624a8d2	-0.07214087763410085
99	0xbfacbff69b3301a1	-0.056152063794346015
100	0x3f7d5e8a7ddf495c	0.00717023943248515
101	0xbf972266d5f16ba2	-0.02259216957859745
102	0x3fa19bef558a2bf9	0.03439281386553001
103	0x3f75dedea730a8a3	0.005339498270624218
104	0xbf72994a2ef9f203	-0.004540719775488092
105	0x3fa0e29169cab95c	0.03297857681660574
106	0xbfc56cf64147718a	-0.16738775432066816
107	0xbfbb9205a5f3f274	-0.10769686986527366
108	0xbf914db5c6953a3c	-0.016898002858676472
109	0xbfc26496c5fb23de	-0.1436947313980274
110	0xbf74c8cb373bf8c4	-0.005074304400976174
111	0x3fb82c66bd1f26f7	0.09442751042584151
112	0xbf84c7ebcef6d43b	-0.01014694428782025
113	0xbfab09ed97136f85	-0.05281012028873903
114	0x3fc51c6c7b326855	0.16492992415880062
115	0xbfaaf03e38a7b68d	-0.05261415902701314
116	0xbfbd1371fef350e5	-0.11357796167732521
117	0x3f7d164cad914c0c	0.007101344607764137
118	0xbfaccbe5c9e05ecd	-0.056243115323182026
119	0xbf846d4c108a9ab1	-0.009974092726520696
120	0x3fc55d247cd6d1aa	0.16690498443280194
121	0xbfa60d77308a9e8a	-0.04307148425624259
122	0x3fa5e7c404ff3d73	0.042783856973637756
123	0x3fa8df8e46f5446e	0.04858059517085499
124	0xbf8e90988fa277fc	-0.01492423237169404
125	0xbf9666b7d884ac3c	-0.02187621363661328
126	0xbfb450b73f49972e	-0.07935662551025466
127	0x3fb4e9f46c5587c7	0.08169486660838664
128	0xbfa9ce66213eb5e2	-0.05040282398054409
129	0xbf915465bd244185	-0.016923513097084637
130	0x3fa2ef7f7931e390	0.03698347429685278
131	0x3faaee6f8812e6e5	0.052600369797301906
132	0xbfab2c8953ac804e	-0.053074161018458285
133	0x3fa4266e6309c85a	0.03935570677721563
134	0xbfb9640b5f8c0d9e	-0.09918280680363131
135	0x3fb50e2244d7071c	0.08224691563284775
136	0xbf8b5573dc05eecf	-0.013346581604074896
137	0x3fa5b041806743b4	0.042360350536575636
138	0xbfc201e601a6d1ff	-0.14068293648382732
139	0x3fb47a3b52131db3	0.07999010804916544
140	0x3fb254405d48546e	0.07159807469754906
141	0x3f7fb67a6f051bad	0.0077423842015553026
142	0xbfa5226b1372c47a	-0.04127821552663931
143	0xbfb7effa717d3209	-0.09350552817085868
144	0x3fc0fa57d743b3da	0.1326398659797679
145	0x3fb9d28c99e06d50	0.1008689761805972
146	0xbfb18430556f84cb	-0.06842329107122962
147	0x3f8ccbafd0dd9296	0.014060376702852023
148	0x3fc19c206f1a87f5	0.13757710862142827
149	0x3fb2bc6d0fb07ec9	0.07318765290301167
150	0xbfc29f656688b991	-0.14548938280627202
151	0x3faa0a89e55cc3c1	0.0508616535647728
152	0xbfb82d673fc8057b	-0.09444279963647333
153	0xbfa6bc37b335570d	-0.04440473616220517
154	0x3fb0a656086c0ef0	0.06503808694474933
155	0x3fbd5e1f6973cecd	0.11471744846840722
156	0x3fbaa9bf91c6c64f	0.10415265377994241
157	0x3fbb7945f315cdcd	0.10731923279472895
158	0xbfc4b69217393b39	-0.16182161458933722
159	0xbf95b21d3360079a	-0.021187263737381203
160	0x3fa3f94c28d26358	0.039011363967069
161	0x3fae18dc8c439b4a	0.05878342830856427
162	0x3fbf735e0bdddf47	0.12285411634172504
163	0xbfb0db3c774ed8a9	-0.06584527886193094
164	0xbf8fea4edebd52c0	-0.015583625957938607
165	0xbfae5655d88a604c	-0.05925243633572616
166	0xbfb0742e4b7865eb	-0.06427277891670939
167	0xbfa76525caba5aea	-0.04569357013422411
168	0xbfb03359b22d444c	-0.06328354454059698
169	0xbfab20d14b2c8ba3	-0.05298475306178509
170	0xbfc44100a46aa718	-0.15823371914057627
171	0xbfb81e7de6a2dabc	-0.0942152679516352
172	0x3f9a237806bafcb5	0.025525927935402055
173	0x3fb0db9fb7ed29be	0.06585119476691312
174	0xbfa92095bf1ea7ef	-0.049076728420302966
175	0xbfb829de21ebd74e	-0.09438885048061005
176	0x3fb77ff58724e9bb	0.09179625081461655
177	0x3f99729e6c94c7dd	0.024851298692006075
178	0xbfb6623d3a2aa903	-0.08743651075443286
179	0xbfa07e25fdabb09c	-0.032212435928017785
180	0xbfa3f9f476ce0267	-0.039016379835634045
181	0xbf96b4b7dfc2dec6	-0.022173760444927713
182	0xbf9464940985df14	-0.01991492565272697
183	0x3fc12649e4dad49e	0.13398097681571114
184	0x3faabea8c0daa871	0.05223586420227456
185	0x3fc13829010d3677	0.13452637244556673
186	0xbfafe72c416c0318	-0.06231058405501794
187	0x3fc6750bc4dbec6e	0.17544695961246098
188	0xbf447c93b1675a61	-0.0006252022893090231
189	0xbfc5a78760942612	-0.16917507377392887
190	0xbf9b8c768c739dbd	-0.026903011629568974
191	0x3fa20cad941d5331	0.03525297577895115

param_3 f8 [3]
0	0xbfaec7ba026dc562	-0.06011754302643159
1	0x3fb0ca3c1ef92051	0.06558585888080982
2	0xbf6ed54ddd95d572	-0.003763820725618921
